easy.model (torch_old, 178950 bytes, 20 tensors)

weight f4 [16, 3, 5, 5]
00000000: f413 9840 7741 6b40 07e6 ae3f 2e60 463f
00000010: 09d0 0a40 0358 ea40 92ce d2bf 9e56 c5be
00000020: aceb 83be 5722 34bf 34f2 29c0 2f65 da3e
00000030: 44a9 3cc0 f425 04c0 5b14 f7bf ab04 4a3f
00000040: c8b3 0b3e 8874 3540 40fa 1b40 2e7e 533f
00000050: 34b8 ecc0 b416 88c0 e5ca 55c0 7a06 6240
00000060: e48d a53f 5c4d 41c0 001e dbbe da82 b2bf
00000070: 052d d53c f309 35bf 6791 52c0 b80e 0dbf
00000080: 1195 9cbf 0e0d 34be 57be c0b9 3c29 083f
00000090: c7c6 c53f c548 973c 8d9c 60bf 1882 243f
000000a0: 03af 0cc0 ed40 f13e 7251 bc3f 0317 cabf
000000b0: 3f20 32c0 4e36 533f dc6e 4f40 415c 2040
000000c0: 1c40 2ec0 4fc1 47c0 9729 e83f 798b 3240
000000d0: ab4f 89bf c485 eabf 31b1 333d e8c7 833f
000000e0: 7656 3e3f dfa8 e7be 7031 5d3f 60d7 ef3e
000000f0: d2c1 60bf 8da1 933f 77f4 d7bf e43e 63be
00000100: 9820 663e 4baa e43e 3743 fe3f 5439 83be
00000110: 670b 24bc eada 2840 96fc 94c0 70b6 ac3f
00000120: 5108 98bf 5464 2cbe dee3 ec3f 323d 823e
00000130: 8649 cc3c 80d3 e73e d6b0 263e 4360 22be
00000140: b826 053e 5562 b53e f28d c03e 0941 893e
00000150: 7bc0 49bd f575 623d 3642 073f 72dc 0c3f
00000160: 618c c1bb d006 fbbd 62c7 6b3e 7a79 b73e
00000170: 15a0 b03e 68fe 613d e55b 3f3d 08fb 903d
00000180: 09c3 633e a33d e13e a124 b23c 5b31 51be
00000190: c33f 92bc 3e27 06bd 5cfd 9b3d fffc ed3d
000001a0: dbd1 113e 9094 20be 187b 65bd 3ddd 953e
000001b0: f34b 5f3e 173b 8c3e c0d4 a0be fd85 2fbc
000001c0: 7891 8e3d a32e e03c 523d 58bc 65b3 14be
000001d0: cf1d 2bbe 628c 8a3d 2690 86bd fbe2 a43c
000001e0: de8d 54be 526c c4bc 1552 503e d034 8a3e
000001f0: 6e6a 8e3e 822f eabd 9081 a93d 826a 373e
00000200: 3714 3c3d ac73 403e a1c5 313d 6cdc b13c
00000210: 5bde f13e a505 bc3e 519e 9e3e e532 4ebe
00000220: 3867 acbc 5069 823e 1d7b 3f3e d28d 573e
00000230: 2a6d c0bd 53df c6bd d5a2 273e 47da 283e
00000240: d687 9abd 5fbd 2ebd f965 4dbd 39a3 a53e
00000250: f25b 913d ff87 5cbe 15c2 cd40 8da9 6640
00000260: 8e1a 77bf b99d c1be cce1 c8c0 7b2f b540
00000270: 43fc 4d40 6417 bbbf 1519 98be f10c 82c0
00000280: a5b1 303e 5f4a 0c3f 85b9 87bf 87e8 263f
00000290: 30b2 5a3f 1f4d 8440 0dc7 0c3f 6809 a0bf
000002a0: 8bfa 263f a35c d63f c45b efbe 0d64 c4be
000002b0: 5177 b7bf 5c7e f2be 5b8b 9e3f 095e a1c0
000002c0: baf5 6fc0 4889 1b40 532c 7fbe 4b3e 99be
000002d0: c96a acc0 95c2 80c0 b855 ef3f e721 8c3f
000002e0: cf46 a5bf 1f82 9fbf 2af6 9fbd a1fd 3040
000002f0: 4acc 813f 6b80 0f40 64cd 78c0 a17c fabf
00000300: efd4 8940 3dc7 3c40 06c6 0640 b648 54c0
00000310: 9dcc 9ebf ce6d c23f ef26 8140 02c9 8e40
00000320: da01 0840 b8cd 0640 9cc2 22be 0e0a 363f
00000330: 1b8f 5cbf 2272 ca3f 5063 033e 86ee 2b3e
00000340: a4d5 d6be a174 00c0 2107 b7be ebac 0bbf
00000350: a85c d93e 634b 663f 7fb2 7cbc 3d3a 05c0
00000360: ba5e f0bd 6c12 1540 8f86 a8be 8c12 65bf
00000370: ab36 71c0 138d 25c0 b312 01c0 050a 15c0
00000380: 3364 cf3f 9158 8340 59f3 3f40 51b9 bd3d
00000390: cf98 c0bf 454c 4a3f dd96 4940 c2fe a83f
000003a0: abb1 f6be e247 8cbf 7558 73be 19b2 92bf
000003b0: 66dd 11c0 8151 9cbe eb80 c63f 6fa1 44be
000003c0: 0bf7 a6be cecb 46c0 58e2 a13e f951 a0bf
000003d0: 7f7d 3540 5590 e73c b6de 30c0 04b4 3fc0
000003e0: dfbc ef3f 9ee7 8040 e1c0 66bf bf33 17be
000003f0: 8002 2ec0 035a e8bf 413d 82c0 af45 01c0
4.7524357 3.6758707 1.3663949 0.7749051 2.1689475 7.3232436 -1.646929 -0.38542646
-0.2576574 -0.703649 -2.655408 0.42655322 -2.9478312 -2.0648165 -1.9303087 0.7891337
0.136428 2.8352375 2.437149 0.8261441 -7.3974857 -4.2527714 -3.3405087 3.5316453
1.2933927 -3.0203466 -0.42796326 -1.3946183 0.026022444 -0.70718306 -3.2901247 -0.55100584
-1.2232991 -0.17583105 -0.00036762908 0.5318792 1.5451287 0.018467316 -0.8773888 0.6426101
-2.1981819 0.47119847 1.4712355 -1.5788273 -2.7832181 0.8250474 3.2411413 2.5056307
-2.722663 -3.1211736 1.8137692 2.7897627 -1.0727438 -1.8322072 0.043870155 1.0295382
0.7435068 -0.45246026 0.8640356 0.46844006 -0.87795746 1.1533676 -1.687148 -0.2219196
0.22473371 0.44661173 1.9864262 -0.25629675 -0.010012484 2.6383615 -4.6558332 1.3493176
-1.1877538 -0.16835147 1.850704 0.25437313 0.024937402 0.4527855 0.16278395 -0.15857033
0.13003051 0.35426584 0.37608296 0.2680743 -0.04925583 0.055288274 0.52835405 0.5502387
-0.005906627 -0.12257159 0.23025277 0.35834867 0.34497133 0.05517426 0.046718497 0.070791304
0.22242369 0.43992338 0.021745982 -0.20428984 -0.01785267 -0.032752268 0.07616684 0.11620521
0.1424021 -0.15681672 -0.056025594 0.29270354 0.21806316 0.27388832 -0.31412315 -0.010713098
0.0696134 0.027365988 -0.013198214 -0.14521559 -0.1671059 0.06765057 -0.06570463 0.020127764
-0.20757243 -0.023977432 0.20343812 0.26993418 0.27815574 -0.11434843 0.08276665 0.17911723
0.045917716 0.18794125 0.043401364 0.02171155 0.47239956 0.36723056 0.3098016 -0.20136602
-0.021045312 0.25470972 0.18699308 0.21050194 -0.093958214 -0.097105645 0.16370709 0.16489516
-0.0754544 -0.042661067 -0.050146077 0.32351092 0.07097615 -0.21536253 6.4299417 3.6040986
-0.96524894 -0.37815645 -6.277563 5.662046 3.2185218 -1.4616513 -0.29706636 -4.0640798
0.17255266 0.5480098 -1.0603491 0.6519856 0.8542814 4.134414 0.5499123 -1.250287
0.6522605 1.674702 -0.467497 -0.38357583 -1.4333287 -0.4736203 1.2386278 -5.042729
-3.749373 2.430254 -0.24919252 -0.29930338 -5.3880353 -4.0237527 1.8698034 1.0947846
-1.2912234 -1.2461585 -0.07810624 2.7654803 1.0140469 2.242213 -3.887536 -1.9569284
4.307243 2.9496605 2.1058364 -3.316938 -1.2406193 1.518976 4.0360026 4.462037
2.125113 2.106306 -0.1589455 0.7110909 -0.8615586 1.581608 0.12830853 0.16790208
-0.4195987 -2.0071185 -0.35747626 -0.54560727 0.42453504 0.8995878 -0.015423416 -2.0816796
-0.11736818 2.3292494 -0.3291516 -0.89481425 -3.7689617 -2.5867355 -2.0167663 -2.3287365
1.6202453 4.1045613 2.9992278 0.09263862 -1.5046633 0.7902263 3.149833 1.3202746
-0.48182425 -1.0959437 -0.23764212 -1.1460601 -2.279138 -0.30530933 1.5508093 -0.19202207
-0.32610354 -3.1061893 0.31618 -1.2525016 2.8357847 0.028267065 -2.7635932 -2.9953623
1.8729514 4.0282736 -0.9013806 -0.14765833 -2.7189026 -1.8152469 -4.0699773 -2.0198781

bias f4 [16]
00000000: c14e 4040 019e e43e 1797 c740 68cd 243f
00000010: 1cba 6140 db97 103f dee7 a73f 46c2 3a40
00000020: fe1f e73d 6494 7240 c875 593e 3fa4 ed3d
00000030: efb7 0d40 43fe 6a40 3c52 1841 4148 0441
3.0048068 0.44651797 6.2371936 0.64375925 3.5269842 0.56481713 1.3117635 2.9181075
0.11285399 3.790307 0.21236336 0.11603593 2.2143514 3.671769 9.520077 8.26764

weight f4 [16]
00000000: f2fa 9640 53e6 0a3d bf20 9440 5047 6640
00000010: 57a9 d940 7e27 8bbb e9ff dd3d 8a81 6540
00000020: ac01 0b3c 9bd5 ab40 7351 32bb fee0 c83d
00000030: bb34 4940 d3ac 5a40 4375 a440 875f 2b40
4.718133 0.03391106 4.6289973 3.5981026 6.8019214 -0.004246651 0.108398266 3.5860314
0.008484285 5.369825 -0.0027209192 0.09808539 3.1438434 3.4167984 5.139314 2.6777055

bias f4 [16]
00000000: 2832 7ac0 2e80 3cbe a941 c43f f911 dabe
00000010: c9c7 66c0 4ae7 00bf b977 44bf d858 c93f
00000020: 4636 e3bd cefd 18c0 e505 d6bc 404a 43bf
00000030: 062e 8940 cbb2 0bc0 eb1b 89bf ea5a dfbd
-3.9093113 -0.18408272 1.5332538 -0.42591837 -3.605944 -0.5035292 -0.7674518 1.5730238
-0.11094336 -2.390491 -0.026125858 -0.7628517 4.286868 -2.1827877 -1.0711645 -0.10906012

running_mean f4 [16]
00000000: 281c 34be 5168 9b40 c43d ea40 2d5a 00bf
00000010: 322a 0bbf 40ba 8440 d6b3 b441 ebf5 4fc1
00000020: be68 57c0 9362 a73e 4d58 2fc1 fcc4 8c40
00000030: cd1e 6c42 3351 c840 5c66 1841 71f9 b741
-0.17588866 4.856484 7.3200397 -0.501376 -0.5436126 4.1477356 22.58781 -12.997539
-3.365768 0.32692394 -10.959058 4.399046 59.03008 6.259912 9.52499 22.996798

running_var f4 [16]
00000000: c149 cb3f 271e 043f d0d5 2e40 b0ad 9f40
00000010: 00fa d53f cbcb a93e c364 bb40 f473 2841
00000020: 1e43 a13e 5622 fd40 fe68 1740 e2b3 2540
00000030: cba3 8542 9ff0 1a40 6990 0041 cee6 a040
1.5881883 0.5160851 2.7318 4.989952 1.6716919 0.33163294 5.85605 10.528309
0.3149652 7.9104414 2.3657832 2.5891042 66.81991 2.4209363 8.035256 5.0281744

weight f4 [32, 16, 5, 5]
00000000: f4d5 fb3d cbee a83d e2dc fa3d 211e 4a3d
00000010: acff 4a3d 3eea f1bd 35e4 a0bd 605e 61bd
00000020: 8db5 ba3d d82c 0a3e af06 e23d 4e28 ce3d
00000030: ec39 6abd 41dd f93d cf45 a23d 4360 f5bd
00000040: 9c24 0cbe 4dda 84bd 4b86 e8bd 94a3 f13d
00000050: ec4c eabd 910b f3bd 971f 02be cabe 8fbd
00000060: 56f5 05be f776 febd f8d8 eabd d2b5 a6bb
00000070: 5f5e 263d fd8c d53d d657 12be 0b19 dabd
00000080: 534d dabd 2e2d 203d a3fd d03d 29d8 a6bd
00000090: a07e 8ebd cc5f bbbd eb64 d33d bca2 b13d
000000a0: 6336 9abd 9457 07be db25 873d f49c 1f3d
000000b0: eccd ddbd 163a eebd fbe2 12be 6f01 00be
000000c0: 01b0 c43d 2179 d43d 3d80 053e db5b dd3d
000000d0: 0b84 5f3d be89 aebd 6787 e63d 55eb d83d
000000e0: d71c cc3d 75e6 ca3d 3cf5 eebd a93a c23d
000000f0: 9bee acbd 6e83 853d 2d96 a3bd 4a44 f8bd
00000100: 1ede 6fbd 49b1 0ebe 37a2 14be 2588 8dbd
00000110: 29fe adbd 1da6 12be 1057 df3d 2ba5 813d
00000120: 98b0 163e 29e5 a8bd 9ecd 713d 7436 a63d
00000130: 03a4 11be 7e79 c23d c9b3 15be f9ec 5dbd
00000140: 3306 02be 1923 683d c597 db3d 19a5 80bd
00000150: fefe e7bd c951 10be 3817 ae3d c06f f7bd
00000160: 1b1a 04be 4f1e 823d 149f 683d b273 6abe
00000170: fb43 99bd 9f98 08be f61c 99bd 87df babd
00000180: 67b2 8e3d f9a5 9fbd 91cc 08be 9ba3 e2bd
00000190: 782e 893d 8684 833d 427e b43d 11a2 3f3d
000001a0: 6718 95bd 4dd1 0e3e 5d4e f4bd 3b76 693d
000001b0: 4fc8 503d 89d8 bf3d d565 ad3d 73f3 9c3d
000001c0: a36c 1abe d7e6 d13d 68da 0a3e 861d 5bbd
000001d0: 6e5f 17bd 6ed1 c7bd 0ea7 00be 2be5 b63d
000001e0: ae68 ad3d 268a cbbd 544e b4bd 3802 7f3d
000001f0: 5d4c e1bd 6891 18be ec18 d13d 13cf e2bd
00000200: 547e 143e 9eaf cd3d 1c3b 00be beb5 83bd
00000210: adf9 f9bd dff8 dd3d d904 c73d 1da7 65bd
00000220: 01b7 9fbd c3b3 b8bd c8a6 523d b987 8b3d
00000230: df31 b1bd 6f12 16be aada 9bbd 2f1e 0e3e
00000240: 5c48 723d 1d21 a5bd cf5a e3bd a3d9 e7bd
00000250: 6751 893d b2bc aa3d 1730 edbd 9969 f5bd
00000260: 624d 06be dcba 04be 2cc8 0a3e 8357 96bd
00000270: 7b5d 80bd dc4d 02be f514 fe3d 59a8 913d
00000280: 937f 0dbe b830 78bd 10e8 6e3d 493a aa3d
00000290: c41a 053e 4500 4ebd e3c5 88bd c192 b33d
000002a0: 9a1f 923d 6a2c 01be 9a63 6fbd 8efb afbd
000002b0: c2cb 8e3d dd0f f13d 05ca 87bd 2055 6bbd
000002c0: b137 a03d 222c eb3d 1909 6f3b 2df3 0c3e
000002d0: 558a 15be d0c9 8d3d f36f 853d 7a0d 9abd
000002e0: 9415 1abe f771 f9bd e4ca aa3d ddc7 b2bd
000002f0: 6575 aebd 1c72 08be aa02 97bd f673 d03d
00000300: 0f0f 943d f9ae c93d ae95 bebd 48db 853d
00000310: c9f9 c73d b646 9abd e2b8 f0bd 46d0 873d
00000320: de84 d03d 1891 f7bd 752c 07be 3bdd 08be
00000330: 5d5e e9bd 7310 9b3d cdab 253d eee4 c33d
00000340: 6c3d 4f3d 7479 563d b3c6 fabd d4f4 adbd
00000350: 2179 ec3d be1b 103e 8664 86bd 714d cf3d
00000360: abf4 c13d 2fd7 a13d e518 e63d c003 653d
00000370: 61d3 0d3e 4afd ce3d 0e8c 063e 7f19 853d
00000380: 3d30 c63d 83f7 623d 7b1c c0bd a502 fdbd
00000390: 4188 0dbe 4a6c d1bd cb0b 8e3d 219c cc3d
000003a0: 386e fb3d de3e f6bd 1cd4 bfbd 1824 f9bd
000003b0: 9d90 d53d 4068 e8bd 6dfc 0ebe 3239 0dbe
000003c0: a30b b5bd 064c ce3d 1e20 66bd 44a5 e8bd
000003d0: 2b76 08be c2c2 aa3d 2269 823d 8df7 e3bd
000003e0: 5099 17be 57f1 dfbd 40fc 0c3e 5af9 653d
000003f0: 55c3 003e 4ca6 e43d 28d7 0e3e c7e3 193e
0.12296668 0.08248671 0.12249161 0.04934514 0.049560234 -0.11812256 -0.07856027 -0.055021644
0.09116659 0.13493669 0.11036431 0.10066281 -0.057184145 0.12200404 0.07923471 -0.11981251
-0.1368584 -0.0648695 -0.11353739 0.11798778 -0.11440453 -0.118674405 -0.12707363 -0.07018812
-0.1308187 -0.124250345 -0.11467165 -0.0050875926 0.040617343 0.10427282 -0.14291319 -0.10649308
-0.1065928 0.039105587 0.10204627 -0.08146698 -0.069577456 -0.09149131 0.10321983 0.08673617
-0.07529905 -0.13217002 0.06599017 0.03896804 -0.10830292 -0.11632173 -0.14344399 -0.12500547
0.096038826 0.10374666 0.130372 0.10808536 0.054569285 -0.08522366 0.11256295 0.10591761
0.09966438 0.099072374 -0.116678685 0.09483845 -0.08443948 0.06519209 -0.07987628 -0.121224
-0.058561437 -0.13934816 -0.14515005 -0.06910733 -0.08495743 -0.1432118 0.10905278 0.063303314
0.14715803 -0.08246834 0.059033982 0.08115855 -0.14222722 0.09495829 -0.14619364 -0.054181073
-0.12697677 0.056674097 0.10722307 -0.0628149 -0.11327933 -0.14093699 0.085005224 -0.120818615
-0.12900583 0.06353437 0.056792334 -0.22895697 -0.07483669 -0.1333947 -0.07476227 -0.09124666
0.06967621 -0.07795329 -0.13359286 -0.110663615 0.06698316 0.06421761 0.08813144 0.046785418
-0.07280045 0.1394703 -0.11929009 0.05699752 0.05097228 0.09367473 0.084666885 0.07663622
-0.15080504 0.10249107 0.13559878 -0.053494953 -0.036956243 -0.097567424 -0.12563726 0.08930429
0.08467232 -0.09938459 -0.088040024 0.062257975 -0.11000893 -0.14899218 0.102098316 -0.110746525
0.14501315 0.10043262 -0.12522548 -0.06431149 -0.12205825 0.10838484 0.097177215 -0.056067575
-0.07798577 -0.09018662 0.051428586 0.068129964 -0.0865209 -0.1465547 -0.07610066 0.13878702
0.05915104 -0.080629565 -0.11101305 -0.11320808 0.067049794 0.08336772 -0.11581438 -0.11983032
-0.13115457 -0.12961906 0.13552922 -0.0734091 -0.0626783 -0.12725013 0.12406341 0.07112188
-0.13818197 -0.060593337 0.05832678 0.08311898 0.12998492 -0.050293226 -0.06678369 0.087682255
0.07134934 -0.12614599 -0.058444597 -0.08592902 0.069724575 0.11770604 -0.06630329 -0.05745423
0.07823122 0.11483027 0.0036473928 0.13764639 -0.1460355 0.06923258 0.06515493 -0.07522102
-0.15047294 -0.1217994 0.083394796 -0.08729527 -0.08518485 -0.1332478 -0.07373555 0.10178368
0.07229435 0.098478265 -0.09305893 0.06535965 0.097644396 -0.07533018 -0.117540136 0.06631522
0.101815924 -0.12088221 -0.13200553 -0.13365643 -0.113949515 0.07571497 0.040447045 0.09565149
0.050595686 0.05236192 -0.1224493 -0.08493963 0.11546541 0.14073083 -0.06562142 0.10122193
0.09470495 0.07902371 0.11235217 0.05591178 0.13850166 0.10106905 0.13139364 0.064990036
0.096771695 0.055411827 -0.09380432 -0.1235402 -0.13821508 -0.102257326 0.06935843 0.09990717
0.12276882 -0.1202371 -0.093666285 -0.121650875 0.104279734 -0.11348009 -0.1396348 -0.1379135
-0.0884011 0.10073094 -0.056182973 -0.11359647 -0.13326328 0.08337928 0.06367709 -0.11131201
-0.14804578 -0.10934704 0.137681 0.056146003 0.12574513 0.11164531 0.13949263 0.15028296

bias f4 [32]
00000000: 994e 4abc 70a6 b13e 2c63 523e 4831 5f40
00000010: c255 debc 47f0 0d3f 01bb 79c0 0cd6 003f
00000020: d78a 9fc0 11e8 873e 4006 2ebf 868b e13d
00000030: 19db 36be 20f5 543f e4dc 7640 9f19 79be
00000040: 8863 22c0 cd1a 22bf ea96 b63f 6532 6640
00000050: 4b05 8f40 5c7e 8e3f 51cb 2ebf 4b0a e63f
00000060: 4531 5d3d 9823 44bf 0926 1740 8079 a43e
00000070: ae64 5a3e e85e 2fc0 42e0 a73d 2c5c 0cbf
-0.012347841 0.34697294 0.20545644 3.487383 -0.027140502 0.5544476 -3.9020388 0.5032661
-4.985698 0.2654424 -0.67978287 0.1101294 -0.17857017 0.8318653 3.857232 -0.2432618
-2.537325 -0.63322145 1.4264805 3.5968258 4.469396 1.1132312 -0.68278986 1.7971891
0.054002065 -0.7661681 2.3616965 0.32123947 0.21327469 -2.7401676 0.08197071 -0.54828143

weight f4 [32]
00000000: a48f c53b 967f ab40 fc29 4dbd a87f a33f
00000010: 284b b2bc 4763 903f 89d5 5140 122f 743c
00000020: fc4f 0341 256e e140 7691 783c f2b2 ba3d
00000030: e6ca 26bc d082 9e40 9389 5440 aa5e 2e3e
00000040: 05b1 8140 b587 7040 4cef cb40 2f9c db40
00000050: 88e3 2e40 1712 5740 9e69 2f3f bb7e 5140
00000060: a567 c53f 125f 3cbc ac7c 0241 0ac9 0241
00000070: 04f5 ee3b a87e 5340 5d12 98bc 97b2 203e
0.006029086 5.3593245 -0.050088868 1.2773333 -0.021764353 1.1280297 3.2786582 0.014903801
8.207027 7.0446954 0.015171399 0.09116162 -0.010180211 4.9534683 3.3208969 0.17028299
4.052859 3.758283 6.372961 6.8628154 2.7326374 3.360479 0.68520534 3.27336
1.5422255 -0.011497276 8.155437 8.174082 0.0072923917 3.3046055 -0.018563444 0.15693127

bias f4 [32]
00000000: 7c39 dcbd f210 76bf a212 01bf 475b 00bf
00000010: d869 bcbe 9467 f6bf ca58 33bf de46 30bd
00000020: 02f0 ffbf bfa7 1c3e 6028 95be 14c7 ffbe
00000030: 970a babe cae5 64c0 81d2 53bf 4027 38bf
00000040: 71cb 30c0 df43 52c0 95af 19c0 6391 c6c0
00000050: 2fbd 7cbf 3edc 5abf 0dca 1fc0 7e18 06c0
00000060: 44a0 75be cd95 9bbe 41a6 85c0 7f67 a2c0
00000070: 19c6 47be fc85 babf 6122 29be 8add f3be
-0.10753152 -0.96119606 -0.50419056 -0.5013928 -0.36799502 -1.925036 -0.70057356 -0.043036334
-1.999512 0.15298365 -0.29132366 -0.49956572 -0.36336204 -3.5765252 -0.8274308 -0.7193489
-2.762417 -3.2853925 -2.4013417 -6.2052474 -0.9872617 -0.8549231 -2.4967072 -2.095245
-0.23986918 -0.30387726 -4.1765447 -5.075134 -0.19509162 -1.4572139 -0.16517021 -0.47629958

running_mean f4 [32]
00000000: 2f5d e5c0 611d d042 bd20 1ec3 dee7 b3c0
00000010: 6339 efc1 f39b 3dc3 7fcb 21c3 c793 77c2
00000020: a5bf 65c2 e376 6ec3 4652 2c43 1e51 34c2
00000030: 99b6 8642 1ae9 07c2 bdb2 86c0 3e54 a1c2
00000040: c324 7a41 c4ba 3dc2 36c8 50c2 f268 66c2
00000050: a709 9bc2 6c87 bbc3 f1c2 d2c2 0010 7d42
00000060: 4fcf 2fc3 8190 76c3 08a7 34c2 cb61 92c2
00000070: 73e3 28c2 ad20 31c3 97f4 bb41 f1c6 86c2
-7.167625 104.05738 -158.12788 -5.622054 -29.90302 -189.60918 -161.7949 -61.894314
-57.437153 -238.4644 172.32138 -45.079216 67.356636 -33.97764 -4.2093186 -80.664536
15.633975 -47.43239 -52.19552 -57.602486 -77.51885 -375.05798 -105.380745 63.265625
-175.8098 -246.56447 -45.163116 -73.191 -42.22212 -177.12764 23.494429 -67.38856

running_var f4 [32]
00000000: 6d01 1342 082c f846 c4aa 7f46 ecbd 8846
00000010: 91fb 0244 8a89 7346 12de 8f47 b3b0 2245
00000020: 89c5 6547 40da 1d47 e949 c546 ac44 6545
00000030: 6742 5345 4172 2747 6df1 3847 da81 d245
00000040: 8590 f946 ab70 db46 bc9c 0847 7c06 9c46
00000050: 35b6 b446 05bb 8647 13bb e645 4a2a b846
00000060: 357e 0147 a220 f746 54bd f846 0348 f547
00000070: cab8 4946 27f8 5b47 f188 a744 2bbf 5146
36.751392 31766.016 16362.691 17502.96 523.9307 15586.385 73660.14 2603.0437
58821.535 40410.25 25252.955 3668.292 3380.1501 42866.254 47345.426 6736.2314
31944.26 28088.334 34972.734 19971.242 23131.104 68982.04 7383.3843 23573.145
33150.207 31632.316 31838.664 125584.02 12910.197 56312.152 1340.2794 13423.792

weight f4 [32, 32, 5, 5]
00000000: 9cbf f0bd 0c9f 883d e03d 973d 4b7b c8bd
00000010: 0370 bf3d 6329 923d 10b1 8d3d 7fdd d2bd
00000020: 998f c33d 5be0 a13d b2a5 eebd 0657 f3bd
00000030: 9e1e e7bd 4a48 8c3d bd62 e33d c5fe b7bd
00000040: fce1 9e3d a18c 90bd f5a4 03be 17fc 8fbd
00000050: d4cd 9abd eedb d7bd a8c9 853d a506 c7bd
00000060: 7f38 89bd a628 6ebf 46f4 4940 1465 63bf
00000070: 44f6 69c0 0481 42bf 3b4b 0240 b3fb 103f
00000080: 44e3 26bd 324f b0c1 d293 493f f87f 473f
00000090: c581 2a3e df76 f03e 5c9e 98c1 21a5 c0be
000000a0: 6d76 1740 1379 d23f 6057 5cbf e008 16c0
000000b0: 4f1c 433f 14ef 5b40 02db 863f 5620 0dbe
000000c0: c8a2 09bf 08c4 0fbe ed2b 33be e961 03c0
000000d0: b6f1 97c0 bff0 a73f 3104 8fbd 94f9 69bf
000000e0: d103 00bf b1f4 9dbf 77be 40bf c12e a73f
000000f0: 6b1c 50bd dae5 d6bf 0f57 79bf c5d4 2ac0
00000100: 5f8e cb3f 6e8d 383f 1096 48be e468 91c0
00000110: f0af d03e 7db8 cfbe 3f95 033e e6fd 583f
00000120: 0f7d b9be 08dd 973f 0e69 97bf d46f 59c0
00000130: 4283 603f 0566 e0bd 8afb 6bbf a164 9c3f
00000140: d0ee 0fbf e6f0 a040 4dfe 38c0 42b8 cb3f
00000150: 908a e93f 89a1 38c1 4b32 87c0 2e7b 0fc0
00000160: 7a3e 593f b226 943e 1903 48c1 5d32 423e
00000170: 3cfa d83e a0f7 853f 3b19 9f3f 6d08 a9c0
00000180: f979 13c0 3732 eb3f dae4 da3f e0e7 073f
00000190: 2c87 1dbe b362 8dbd 29c6 9bbd c2bf 043b
000001a0: 10ba 9dbc 5562 16be 2fe0 d8bd aeb4 20be
000001b0: 50e0 72bd 0a1b 53bd a126 eabd e9ce 0c3e
000001c0: e300 5dbe 06df dd3d 30f4 823d 3391 20be
000001d0: fce5 313e 62b8 543d 587c e23a 218b f4bc
000001e0: f3f2 52bd dc5e 963e 016a 0abd fe63 dc3d
000001f0: 47f5 3c3e 5609 c9bf 4633 903f 570f 6440
00000200: 37ad 25be e0ff e6bd cfb2 42c0 60aa d53e
00000210: 294e 44bc e5f6 db3c 1b54 4a3f 89dc 98bf
00000220: 2ac3 a6bf 68c7 973e 0769 fb3f 8819 49bb
00000230: ecd6 b13f e8cf 74be 79fc 40be 1665 42bf
00000240: 5d37 b7be b2dd 96bf 1be5 8ebf 9387 1bbf
00000250: 357b 41bf 4dfd 293f 74d9 8b40 edc3 dfbf
00000260: fb1b 9dbf 6bfc 8f3f a0c4 6b40 a12f 903f
00000270: e9e4 2e3f 8cd6 f0c0 c580 87c0 f928 313f
00000280: 686d b13f f1c2 07be 4287 c03e fed4 7dc0
00000290: 25df aec0 af89 503f 9c55 f03f 84eb 34c0
000002a0: 91f2 7ac0 1a80 8ebf 7d9d a5be 0820 d8c0
000002b0: 6124 7bc0 80df 1dc0 ae82 e2bf 0ad6 2a3e
000002c0: a99a d83e d805 003f a1d3 923e 5104 2c3e
000002d0: 7a2d 653d 47c8 123f c9df ec3e b693 043e
000002e0: 19de 923e 38c9 a7be 3f30 adbd 03e8 17bf
000002f0: d236 2dbe 1a95 683e 4303 a0bd e9c9 093f
00000300: 6e87 353f 7e72 57bc 986f 8ebd 83df 9bbe
00000310: fed2 7b3e 7c4b bdbd cfe8 32bf ba5d 063d
00000320: 9b5f 963d 9725 9c40 69cd 79c1 d3c3 83c0
00000330: 5a88 d53f 986c 3a40 8fe1 893f 388f 8fc0
00000340: 2b85 0dc0 3461 b83f 2f17 c9bf c670 6740
00000350: 8221 513e 191a 3fc1 5223 3f3f 5511 bebf
00000360: acde 37c0 3e7c 06bf 1c23 c13e 7f49 0bc0
00000370: 8766 1a40 c9aa 27c1 6d4b f03f f258 77bf
00000380: 6412 debf ddf7 a6bf ae9f 4840 2253 8bbf
00000390: 3995 8240 67dd 5f40 e585 65bf a844 c840
000003a0: 3556 4740 109e c0c0 1cff 5440 786b 1dbe
000003b0: 990f 0dc0 fa37 c33f f603 26c0 3b3a c43f
000003c0: 324e 98bf 2177 4c3f 813d 1240 8c39 f7c1
000003d0: c618 123f 64ff 52bf ae7f 16c0 9450 4f40
000003e0: e5fa 9bbf 0ecb 973e 6c75 cb3f 087e 5fbf
000003f0: fd6c 0dc0 eace 3a40 7c83 77c0 c542 bb3f
-0.117552966 0.06670961 0.073848486 -0.09789141 0.093475364 0.071368 0.069185376 -0.10296153
0.095488735 0.079041205 -0.116526976 -0.11881833 -0.11285137 0.068497255 0.11102817 -0.0898414
0.07757947 -0.07058073 -0.12855895 -0.07030504 -0.0755879 -0.10539995 0.065326035 -0.09718064
-0.06700229 -0.93030775 3.1555343 -0.8882611 -3.6556559 -0.7597811 2.0358417 0.5663406
-0.04074408 -22.03867 0.7874118 0.7792964 0.16651066 0.4696569 -19.077324 -0.37625983
2.3666031 1.6443199 -0.86070824 -2.3442917 0.7621507 3.4364672 1.0535586 -0.13781866
-0.5376401 -0.14039624 -0.17497225 -2.052851 -4.7482557 1.3120345 -0.06983221 -0.9139645
-0.50005823 -1.2340299 -0.75290626 1.3061143 -0.05080835 -1.6788895 -0.97398466 -2.6692364
1.5902823 0.72090805 -0.19588494 -4.544054 0.4075923 -0.4057044 0.12849902 0.8476242
-0.36228225 1.1864328 -1.1828935 -3.3974504 0.87700284 -0.10956959 -0.92180693 1.221821
-0.56223774 5.0294065 -2.8905213 1.5915606 1.8245411 -11.539437 -4.2248893 -2.2418933
0.84860957 0.28935772 -12.500756 0.18964525 0.42378414 1.0466194 1.2429575 -5.2822785
-2.3043196 1.8374699 1.710109 0.5308819 -0.15383595 -0.06903591 -0.076061554 0.0020255898
-0.01925376 -0.14685948 -0.105896346 -0.15693924 -0.059295952 -0.05153946 -0.11433149 0.13750805
-0.2158237 0.10833554 0.06394231 -0.15680389 0.17372888 0.051933654 0.0017279489 -0.029851498
-0.051501226 0.29369247 -0.0337925 0.107612595 0.18452941 -1.5705974 1.1265647 3.5634363
-0.16179357 -0.11279273 -3.0421636 0.41731548 -0.011981525 0.026851127 0.79034585 -1.1942302
-1.3028309 0.29644322 1.9641427 -0.0030685384 1.3893714 -0.23907435 -0.1884631 -0.75935495
-0.35784426 -1.1786406 -1.1163667 -0.60753745 -0.75578624 0.6640213 4.3702946 -1.7481667
-1.2274164 1.1248907 3.683876 1.1264535 0.6831804 -7.52619 -4.234469 0.69203144
1.3861513 -0.13257958 0.37603194 -3.966125 -5.4647393 0.8146009 1.8776126 -2.8268747
-3.921055 -1.1132843 -0.32346717 -6.75391 -3.9240954 -2.4667664 -1.769613 0.16683212
0.42305496 0.50008917 0.28677085 0.16798522 0.055951573 0.5733685 0.46264485 0.12946972
0.28685072 -0.32770705 -0.08456468 -0.59338397 -0.16915444 0.22713128 -0.07813122 0.53823715
0.70909774 -0.013149856 -0.069548786 -0.30443963 0.24592206 -0.09242913 -0.6988649 0.03280423
0.07342454 4.8795886 -15.612649 -4.1176543 1.6682236 2.912878 1.077196 -4.4862328
-2.211253 1.4404664 -1.57102 3.6162581 0.20422938 -11.9438715 0.7466327 -1.4849039
-2.8729658 -0.5253333 0.377221 -2.1763608 2.4125078 -10.479196 1.8773018 -0.96620095
-1.7349362 -1.3044392 3.134746 -1.0884745 4.0807157 3.4978883 -0.8965743 6.258381
3.1146367 -6.0192947 3.3280706 -0.15373027 -2.204077 1.5251458 -2.5939918 1.533027
-1.1898863 0.79869276 2.285004 -30.9031 0.5706905 -0.82420945 -2.351543 3.239293
-1.2185942 0.29647106 1.5895209 -0.87301683 -2.209777 2.918879 -3.8674002 1.4629751

bias f4 [32]
00000000: 8988 1fbf 60d3 cebd 928c 7d3f 91e6 0b40
00000010: 5e3f ea3f 7481 09c0 9714 12c0 d070 353f
00000020: 9117 1b40 7871 83bf 8ac6 8340 1441 773f
00000030: 3179 00c0 6a4b 2840 cf7e 0540 a3d8 bcc0
00000040: 13de 3c40 3e37 0840 85e7 3d40 d7fe c2bc
00000050: b7cb c33f 5572 1dbf 2955 c33f e1db 1540
00000060: 5f6f 2ebd bbc9 36be 2288 293f a368 163f
00000070: 9d2e 8740 f883 49c0 5190 e2bf c115 03c0
-0.6231771 -0.1009891 0.9904262 2.1859477 1.8300588 -2.1485262 -2.2825067 0.70875263
2.4233134 -1.0269003 4.1179857 0.96583676 -2.007397 2.629603 2.0858648 -5.901445
2.9510543 2.1283717 2.9672558 -0.023803158 1.5296544 -0.6150258 1.5260364 2.3415453
-0.04258668 -0.17850392 0.6622335 0.5875341 4.22444 -3.1486797 -1.7700292 -2.0482028

weight f4 [32]
00000000: 4819 d842 968c d942 abed d742 328f c4c2
00000010: 58ca df42 4cf4 d542 49cc d842 afdb de42
00000020: 8510 d442 d488 d842 8b03 d742 7f74 d442
00000030: a05a d742 b8cf d842 7142 d742 bdcc d742
00000040: 984b db42 f3db d942 f9d0 d742 7c55 7dbb
00000050: 9e4e d742 817c d542 4cb2 d742 d8e9 d442
00000060: 2251 d942 099d d742 f5ef d642 f912 d2c2
00000070: 0751 d542 724c dd42 ed20 da42 ef2c d742
108.04938 108.77458 107.964195 -98.27968 111.8952 106.97714 108.398994 111.42907
106.032265 108.26724 107.50692 106.22753 107.677 108.4057 107.62977 107.89988
109.647644 108.92959 107.90815 -0.003865569 107.65355 106.74317 107.848236 106.456726
108.65846 107.80671 107.468666 -105.037056 106.65826 110.64931 109.06431 107.58776

bias f4 [32]
00000000: 52eb db42 fbc4 db42 00dd db42 9f14 a142
00000010: 70d9 dd42 5ce9 db42 0b26 dc42 97e9 e542
00000020: 424b da42 bb64 dc42 9f08 dc42 178d da42
00000030: 48d2 db42 ef1f dc42 140a dc42 8d2a dc42
00000040: b1b1 dc42 d931 db42 40f5 db42 a0cc ccbd
00000050: 467f dc42 a981 da42 ddcf db42 a8d5 da42
00000060: 422c db42 3702 dc42 07eb db42 db94 da42
00000070: ce8c dc42 0fae e142 b894 db42 d359 dc42
109.95961 109.88473 109.93164 80.540276 110.92468 109.95578 110.0743 114.95623
109.14699 110.19674 110.01684 109.275566 109.910706 110.06237 110.019684 110.08311
110.34705 109.59736 109.979004 -0.099999666 110.24858 109.25324 109.90598 109.4173
109.58644 110.004326 109.95904 109.29073 110.27501 112.83996 109.79047 110.17544

running_mean f4 [32]
00000000: 725c 25c4 90b9 1cc4 9e82 d8c3 5956 b043
00000010: 9b91 4442 8763 25c4 ad03 17c4 bd5d 38c3
00000020: eaf1 20c4 bf91 d4c3 59ab 1fc4 4b69 26c4
00000030: d433 28c4 3901 dac3 537d dac3 6ce7 1fc4
00000040: 1f3e 0dc4 50b0 26c4 dd91 24c4 9119 6241
00000050: 00e0 9bc3 52e1 3dc4 6f84 27c4 d0e5 2bc4
00000060: a3cd 26c4 62b1 24c4 7d87 25c4 32bc 0e44
00000070: a62c dcc3 d999 74c1 96a9 24c4 ca3b 23c4
-661.44446 -626.8994 -433.02045 352.6746 49.142193 -661.5551 -604.05743 -184.36617
-643.7799 -425.13864 -638.6773 -665.6452 -672.8098 -436.00955 -436.9791 -639.61597
-564.97064 -666.7549 -658.2791 14.131242 -311.75 -759.5206 -670.0693 -687.5908
-667.2131 -658.7716 -662.117 570.94055 -440.34882 -15.28756 -658.6498 -652.9342

running_var f4 [32]
00000000: 07cf b649 5630 c048 510d 3149 5ed7 1f48
00000010: c728 2e47 2858 b549 6522 be48 a57d 8748
00000020: 92d6 8549 47fc 3049 3ecb ba49 b7a2 be49
00000030: 0123 b849 6eae 2e49 5c75 3149 e48d b349
00000040: 8141 f248 0319 bd48 db4c b649 399b ee42
00000050: e8fa c148 e752 ca49 573c b849 57d4 b649
00000060: 9629 c248 a41a b749 8ca7 c048 68ee 8649
00000070: 4a88 9548 78fa eb47 46b4 be48 e216 b849
1.4975689e+06 393602.7 725205.06 163677.47 44584.777 1.485573e+06 389395.16 277485.16
1.0964022e+06 724932.44 1.5302158e+06 1.5616869e+06 1.5084481e+06 715494.9 726869.75 1.4709085e+06
496140.03 387272.1 1.4934034e+06 119.30317 397271.25 1.6574369e+06 1.5092589e+06 1.4977389e+06
397644.7 1.4999885e+06 394556.38 1.105357e+06 306242.3 120820.94 390562.2 1.5080602e+06

weight f4 [7, 128]
00000000: e28d f63f 357c 9342 a3be 8f42 c531 9142
00000010: 9a2f 9442 87e4 8f42 c3ba 8f42 8d7c aa3f
00000020: 4771 9442 554b 9142 85dc 5a40 275e 9142
00000030: 3c7d 6d42 900e 2242 5497 5f42 13f3 4a41
00000040: 4bce 8642 24d0 8f42 f6bf 8742 0286 8c42
00000050: b7f1 9f40 5d29 9342 e960 9042 99be 9142
00000060: a6af 9442 29a1 8f42 d3bc 8f42 6221 3a40
00000070: e67b 8d42 a883 9142 9697 8942 3f0d 8d42
00000080: 8983 2142 f330 9342 9f42 8c42 2746 9142
00000090: e0f5 9242 2bb5 9042 037b e440 beb9 9042
000000a0: 7fe3 ae40 7bb0 9242 ef39 9042 2a42 9142
000000b0: e0a1 7041 4389 9142 48fb 8d42 0f28 9042
000000c0: ba96 ec3f c02f 9342 b0af 8f42 0d2f 9142
000000d0: 7219 9442 22a7 9042 8d29 2240 0b73 9042
000000e0: 3ea7 9442 c369 9142 8e28 8340 40cd 9142
000000f0: 55d3 e53f 7262 9342 e118 9042 9157 9142
00000100: 455c 9542 6c38 e03f 4094 8e42 7f0d 8f42
00000110: f80f 9442 14d5 8f42 34ac 8f42 59ec 6b3f
00000120: ac74 1540 461b 9342 91a9 8f42 621d 9142
00000130: 8185 dd3d e607 c83d a14f c83d 0310 8a3c
00000140: a6d8 9542 e930 9042 3bc1 8f42 0754 54c1
00000150: 4977 8941 64a0 9342 2698 8b42 a182 9142
00000160: 4d5b ac3f 598f 9342 4ff4 8f42 db01 9142
00000170: 48ba 7141 251b 9242 3141 8e42 c937 9042
00000180: 0ce8 9442 3aee 8f42 112d 8f42 62ca 6c3f
00000190: 8958 f83f a066 9342 f123 9042 ea68 9142
000001a0: 5221 9342 1e00 9042 c70b 9042 e31e ea3f
000001b0: 1433 1a42 b621 9242 9cc0 8e42 efd9 9042
000001c0: 0ea6 9442 b2e1 8f42 19cb 8d42 4050 bac1
000001d0: 6562 9042 3cb5 8e42 33f7 8942 74d0 8c42
000001e0: c5be 9442 b499 8f42 ea65 8f42 9e3b e03f
000001f0: 63a6 6840 50de 9242 2636 9042 88eb 9042
00000200: fcf0 7ac1 213f 9542 cfad 8c42 39f2 9342
00000210: 0c8d 9e42 5b6c 8f42 5f27 8e42 99bb a83f
00000220: 444c 9942 9fc3 9242 8c45 16c1 94c9 9242
00000230: cf62 0f42 7fcd fe41 73fc 3542 bb9b 75c2
00000240: 0c91 1742 b9c0 9142 33e7 8842 b63e 8f42
00000250: 7aba 57c1 da41 9542 a1c0 8d42 ef3a 9442
00000260: a188 9b42 dd95 9042 fbd0 8e42 76db 2440
00000270: 503f 9b42 1ab1 8b42 1533 7342 c7f1 8d42
00000280: 2c44 d1c1 c257 9642 a6bb 8942 bb93 9442
00000290: 2c5d 9842 8b7f 9242 871e d8c0 2bec 9242
000002a0: 4dba 1bc1 7d99 9342 e53f 8c42 cf89 9242
000002b0: 51b7 e2c0 5e76 9442 24d4 8842 7c13 9342
000002c0: c65f 6ec1 97a0 9442 f510 8d42 77f5 9342
000002d0: 7b2d 9a42 6aae 9242 3e94 1bc1 13a1 9342
000002e0: 4c3a 9a42 a332 9342 e752 27c1 a01a 9342
000002f0: 665e 59c1 e5c4 9342 07e4 8c42 dc22 9342
00000300: b5f0 9c42 b195 a840 2759 9242 5bbc 8f42
00000310: 0427 9b42 ed5c 9042 0ad7 8d42 6384 ce3e
00000320: 3154 69c1 3a76 9542 b0eb 8c42 6cef 9342
00000330: b69e 993d ec80 b03d 3b39 e13c 5db8 9e3d
00000340: cf40 9e42 d274 9042 7a6c 8f42 4382 0bc1
00000350: 228a 15c1 bc51 9342 3c7e 8542 1c7d 9242
00000360: dba3 66c1 72e9 9442 7087 8c42 8c40 9342
00000370: 9db6 53c1 e896 9542 4770 8842 e2d6 9442
00000380: 6475 9b42 15ed 9042 0d26 8d42 15ac 983f
00000390: fbb5 6bc1 40ff 9442 155f 8d42 c2de 9342
000003a0: c06f 9e42 19c2 8f42 d473 8e42 6c2d 983f
000003b0: 9ae7 1ac2 f72d 9742 8b6e 8842 c1b2 9342
000003c0: 32f5 9f42 936c 8f42 caff 8d42 0719 69c1
000003d0: ae35 8442 d7a9 9242 f403 8842 fadf 9042
000003e0: c221 9c42 782b 8f42 81ff 8d42 c5f9 ce3f
000003f0: b23f 52c1 edea 9342 9b92 8d42 95df 9242
1.9262049 73.74259 71.87234 72.597206 74.09297 71.94634 71.86477 1.331926
74.221245 72.64713 3.4197094 72.68389 59.3723 40.51422 55.89778 12.684344
67.402916 71.906525 67.87492 70.261734 4.998256 73.58079 72.18928 72.87226
74.34306 71.814766 71.8688 2.9082875 70.74199 72.75714 68.79607 70.52587
40.378452 73.595604 70.13012 72.63702 73.480225 72.35384 7.140016 72.36278
5.4652705 73.34469 72.11315 72.62923 15.03952 72.76809 70.99078 72.07824
1.8483498 73.59326 71.84314 72.591896 74.0497 72.32643 2.533786 72.22469
74.326645 72.706566 4.0987005 72.90088 1.7955118 73.692276 72.04859 72.67103
74.680214 1.7517219 71.28955 71.52636 74.03119 71.91617 71.836334 0.9215751
2.335246 73.55327 71.831184 72.55739 0.108164795 0.097671315 0.09780813 0.016853338
74.92314 72.09553 71.8774 -13.2705145 17.183245 73.81326 69.797165 72.755135
1.3465363 73.779976 71.977165 72.503624 15.107979 73.05302 71.12733 72.108955
74.45322 71.96529 71.58802 0.9249631 1.9402019 73.70044 72.0702 72.70491
73.56508 72.00023 72.023 1.8290676 38.54988 73.06584 71.37619 72.42565
74.324326 71.94081 70.896675 -23.289185 72.19218 71.35397 68.98281 70.407135
74.3726 71.8002 71.69905 1.7518194 3.6351554 73.434204 72.10576 72.46002
-15.683834 74.6233 70.33947 73.97309 79.27548 71.71163 71.0769 1.318225
76.64896 73.38207 -9.391979 73.39371 35.846493 31.85034 45.496532 -61.40208
37.891647 72.87641 68.45156 71.62248 -13.4830265 74.62862 70.87623 74.115105
77.76685 72.2927 71.408165 2.5758948 77.62366 69.8459 60.799885 70.97222
-26.158287 75.1714 68.8665 74.288536 76.18198 73.24911 -6.7537265 73.461266
-9.732984 73.79978 70.124794 73.26916 -7.0848775 74.231186 68.41434 73.538055
-14.898382 74.31365 70.53312 73.97942 77.08883 73.34065 -9.723692 73.8146
77.11386 73.5989 -10.45774 73.552 -13.5855465 73.88456 70.445366 73.568085
78.47013 5.268273 73.174126 71.86788 77.5762 72.181496 70.92 0.40335378
-14.583055 74.73091 70.46033 73.96762 0.07500975 0.0861834 0.02749311 0.07750008
79.12658 72.228165 71.71187 -8.719302 -9.346224 73.65964 66.74655 73.244354
-14.415004 74.45595 70.26453 73.62607 -13.232083 74.79474 68.21929 74.41969
77.72928 72.46305 70.57432 1.1927515 -14.731929 74.498535 70.68571 73.935074
79.21826 71.8791 71.22623 1.1888862 -38.726173 75.589775 68.215904 73.84913
79.9789 71.71206 70.99959 -14.56861 66.10484 73.33172 68.00772 72.437454
78.06593 71.5849 70.99903 1.6169974 -13.140551 73.95884 70.78634 73.43668

bias f4 [7]
00000000: 65ce 8b42 7b20 8442 48cd 9542 04d3 8f42
00000010: a131 8942 e583 9e42 85ea 9242
69.903114 66.06344 74.90094 71.91214 68.59693 79.25761 73.458046
