medium.model (torch_old, 210545 bytes, 22 tensors)

weight f4 [16, 3, 5, 5]
000000 5c da ca bf 83 16 d6 bd 18 2b d3 c0 e6 6b ee bf
       -1.5847888 -0.104535125 -6.5990105 -1.8626678
000010 9a 6e 62 3f 36 4f 06 3e 21 62 83 40 ad d9 9f 3f
       0.88450015 0.13116154 4.1057286 1.2488304
000020 60 85 d0 3f d4 10 b7 40 69 40 8a bf f7 d8 9a 3f
       1.6290703 5.720804 -1.0800906 1.2097462
000030 ae e3 32 3f 9d 84 68 40 9d 41 0f 40 ec 52 bc 3f
       0.6987866 3.633094 2.2383797 1.4712806
000040 0b a1 71 40 f8 74 14 40 8d a7 39 40 80 e4 31 40
       3.7754543 2.3196392 2.9008515 2.7795715
000050 3d ab b6 c0 4e 39 07 c1 50 a2 45 be 96 1a 8c c0
       -5.708403 -8.45149 -0.19300199 -4.3782454
000060 cc 0e c7 c0 64 b2 a7 3f b0 cc 93 3f d0 a0 0d 40
       -6.2205563 1.3101315 1.1546841 2.2129402
000070 22 fb 87 3e 40 84 08 c1 5b ad b3 bf e6 17 f5 bf
       0.26558787 -8.532288 -1.4037279 -1.9147918
000080 fc 63 35 be 7c b6 a0 3f 28 c2 04 c1 08 ce ca 3f
       -0.17713922 1.255569 -8.297401 1.5844126
000090 2d 1f c8 bf ab 4d 10 40 1b 2d af 3d 33 da 94 c0
       -1.5634514 2.2547405 0.08553525 -4.6516356
0000a0 ae 57 8e 3f 1c e5 d6 bf 12 b0 38 3f fe 47 a9 3f
       1.1120508 -1.6788669 0.7214366 1.3225095
0000b0 5f 5d 08 c1 52 e2 2e c0 30 30 75 bf b0 45 20 c0
       -8.522796 -2.7325635 -0.95776653 -2.5042534
0000c0 74 6c 58 be 31 46 f0 3c fa 3b 17 bf 7e 61 18 3f
       -0.21135122 0.029330345 -0.5907589 0.5952376
0000d0 e8 aa 66 be 74 33 60 3f 85 10 b4 c0 99 2f 6c c0
       -0.22526133 0.8757851 -5.6270165 -3.6904051
0000e0 40 22 41 c0 be f4 32 bf 5e be a7 bf c2 9e b7 c0
       -3.0177155 -0.69904697 -1.310497 -5.7381296
0000f0 5d 2f 98 bf 25 aa 2a c0 3c 15 4c 3f c4 c5 cd 3f
       -1.1889454 -2.6666348 0.797199 1.6075978
000100 85 43 93 bf 51 1a 5b 3b 44 08 e5 bf 5c 35 17 c0
       -1.150498 0.0033432434 -1.7893147 -2.3626318
000110 c7 5c 38 c0 de ef e4 c0 ab ed 87 bf a8 32 7a c0
       -2.8806627 -7.1542807 -1.0619406 -3.9093418
000120 2e 7c 59 bf 13 99 76 c0 e2 db 66 c0 88 e3 20 3f
       -0.8495511 -3.853093 -3.6071706 0.62847185
000130 67 8a 60 40 55 2a b0 c0 8b c2 64 3f 59 21 c2 3e
       3.5084474 -5.5051675 0.8935935 0.37916067
000140 7b 59 ab be 2c 2c 83 bf 8d 28 3d 40 4c 34 09 c0
       -0.33466706 -1.0247855 2.9556 -2.143817
000150 aa 5b e5 40 bf 24 0d c0 0f 73 a5 3f 4b 56 26 c0
       7.1674395 -2.2053678 1.2925738 -2.599017
000160 58 1b 0b 40 98 7d 99 3f 2e 25 99 3f c4 21 de 3f
       2.173544 1.1991453 1.1964471 1.7354054
000170 55 ce c0 40 f5 40 02 c1 28 36 ee bf 36 bd b9 bf
       6.025187 -8.140859 -1.8610277 -1.4510868
000180 41 55 fe 3e c7 e2 54 3f 6d e1 3f 40 bc bd bf c0
       0.4967442 0.83158535 2.998134 -5.991911
000190 23 b9 9f bf 14 1b da bf ea 1f d4 3f 9f 4a 28 c0
       -1.2478374 -1.7039514 1.6572239 -2.6295545
0001a0 d5 60 af 3f 76 c0 66 bf b3 e5 c7 bb 38 c4 f4 bf
       1.3701426 -0.9013742 -0.0061003803 -1.9122381
0001b0 9e cf f6 40 94 0e 55 c0 e7 2b c7 bd 94 ee 50 be
       7.712844 -3.3290148 -0.097251706 -0.2040351
0001c0 27 11 15 40 ea 2b 64 3e 6d b3 98 40 36 c5 0e c0
       2.329172 0.22282377 4.7719026 -2.2307868
0001d0 d3 be 5b bf 4c 48 2e c0 ce 96 81 40 9d 69 d3 3f
       -0.8583805 -2.7231627 4.049659 1.6516606
0001e0 7e d9 f3 3f 13 9e 11 c0 ae 20 57 c0 02 fd e9 bf
       1.9050748 -2.275273 -3.3613696 -1.8280337
0001f0 23 4d 7d 40 29 a8 8d be 50 79 c7 be fc 0f 34 c0
       3.957833 -0.2766736 -0.38959742 -2.8134756
000200 1a db c5 3e d8 58 4f 3f fa 5d 8e 3f 42 46 bd 3f
       0.38643724 0.8099494 1.1122429 1.4787066
000210 4a e6 e2 be 70 db b5 bf 5d 0c 07 c0 e1 16 5f 3b
       -0.44316322 -1.4207592 -2.1101296 0.0034040737
000220 12 61 a3 bf c2 91 3a be fb 4c 65 c0 14 c0 07 c0
       -1.2763999 -0.18219665 -3.5828235 -2.1210985
000230 8e 6b da bf 37 4c 2c bf f2 4e 06 bf 34 84 71 bf
       -1.7064073 -0.67303795 -0.5246421 -0.9434235
000240 6d 1c 33 40 98 43 c3 3f 01 8b 9d bf f0 77 2f 3f
       2.79861 1.5255003 -1.2308046 0.68542385
000250 d8 f4 3e 40 02 42 8d bf 00 d4 27 3f 4f f9 01 40
       2.983694 -1.1035769 0.6555786 2.0308416
000260 4c 14 53 3f d0 f4 df 3f 7f fc df be 77 a9 e1 3f
       0.82452846 1.7496586 -0.43747327 1.7629842
000270 31 73 a8 40 76 b8 de 3f 46 06 8a 40 19 ba 05 bf
       5.2640615 1.7400043 4.313266 -0.5223709
000280 83 36 39 40 a6 d0 3d 40 a4 77 71 40 4d 04 d3 3e
       2.8939521 2.96586 3.7729273 0.4121422
000290 dd 4a ab bf 88 35 e1 3f 25 24 a1 3e 82 d4 a7 bf
       -1.3382221 1.7594461 0.3147289 -1.3111727
0002a0 f8 7e cb bf 3c 77 ea 3f 7b a4 45 bf b4 07 7d 3f
       -1.5898123 1.8317637 -0.772041 0.9883988
0002b0 d4 1d 73 40 d0 ed 39 c0 c4 41 5e c0 b1 52 db bc
       3.7986956 -2.90514 -3.472764 -0.026772829
0002c0 8f 13 d3 3e 8b 3b 0b 40 14 8b a2 3f 1d 4f 53 bf
       0.4122586 2.1755092 1.2698693 -0.8254259
0002d0 22 4e 1e 3e 7b b9 bf be 99 97 8d be 9d ca 71 bf
       0.15459493 -0.37446198 -0.27654722 -0.9444979
0002e0 a0 60 55 bf a5 cb 97 c0 df a2 a3 c0 46 a0 b7 3f
       -0.83350563 -4.743609 -5.1136317 1.4345787
0002f0 f5 45 b8 3e 60 d0 88 3e ef cb 6b c0 ab 1f 66 c0
       0.35990873 0.26721478 -3.684322 -3.5956829
000300 94 fe a1 3f 30 a9 1c 3f c1 89 ea bc d1 b4 ba c0
       1.2655816 0.6119566 -0.02863014 -5.8345723
000310 c2 22 0f c0 d6 12 d5 3f a9 fe 00 bf ec 50 8e c0
       -2.2364964 1.6646373 -0.5038858 -4.447378
000320 66 06 5a 40 10 36 c2 3f 5f 5c 29 40 72 74 a6 3f
       3.4066405 1.5172749 2.646263 1.3004286
000330 93 5b 9d c0 a0 ab 5e 3f 28 1d 30 3d 52 e0 0b 40
       -4.9174285 0.8698063 0.042996556 2.1855664
000340 f2 df 13 40 c1 0c 8c c0 3d 15 59 c0 70 31 89 c0
       2.3105435 -4.376557 -3.3919213 -4.287285
000350 ac d2 dd bf be 5c d1 be 1f 64 67 c0 21 b8 a6 c0
       -1.7329917 -0.4089107 -3.615486 -5.2099767
000360 92 d3 31 c0 22 5e 8d bf 3a 54 4a bf fa ff b9 c0
       -2.7785382 -1.1044352 -0.7903477 -5.812497
000370 54 c2 12 c0 ce 56 42 3f a7 34 07 40 46 ad cd be
       -2.2931108 0.75913703 2.1125886 -0.4017126
000380 42 08 1f c0 e4 f6 0a 3f 06 1a e2 3f 91 2f 1d 40
       -2.484879 0.54282975 1.7664192 2.4560282
000390 60 4d 24 40 31 17 59 c0 00 56 08 c0 35 01 3f 40
       2.5672226 -3.3920405 -2.130249 2.9844487
0003a0 ec 72 ee 3f 57 46 d2 be f8 5b 09 c1 48 65 67 bf
       1.8628821 -0.4106929 -8.584953 -0.9038892
0003b0 4b 8f 3b 40 55 cb 61 40 96 4b e3 be b8 4b e7 bf
       2.930621 3.5280354 -0.44393605 -1.8069983
0003c0 94 ee f0 bf 60 48 16 bc f0 31 77 3f f4 80 13 c0
       -1.8822808 -0.009172529 0.96560574 -2.3047457
0003d0 c4 b2 b0 bf 82 82 ce 3d b6 28 a4 be fc 05 36 c0
       -1.3804555 0.10083486 -0.3206231 -2.8441153
0003e0 89 7e 10 40 6e 70 60 40 a2 81 fb c0 da 47 47 c0
       2.257723 3.5068622 -7.8595743 -3.1137605
0003f0 90 f4 1c 3f 70 b8 e2 3f f7 6b 13 40 5b 96 fb c0
       0.6131067 1.7712536 2.3034647 -7.862104

bias f4 [16]
000000 73 6d 95 40 ad 35 aa 40 01 b9 ae 3f d5 8d 65 c0
       4.6696105 5.319052 1.3650209 -3.5867817
000010 f5 ef 90 3f 25 a1 4c 40 e4 f5 9d bf ee 0f 78 3f
       1.1323229 3.1973355 -1.2340665 0.96899307
000020 0d c9 0c 3e 31 81 0c 40 0d 5b 08 40 a5 85 b7 bf
       0.1374857 2.1953852 2.1305573 -1.433766
000030 0b 6a 6e c0 67 f0 b2 c0 29 0d cb 40 b3 ea 88 c0
       -3.7252223 -5.591846 6.3453565 -4.27865

weight f4 [16]
000000 79 d2 51 40 c4 4c e7 40 39 76 a0 40 e2 aa 2f c0
       3.2784712 7.228121 5.0144315 -2.7448049
000010 9a 63 65 40 72 09 ad 40 46 0c e1 40 d6 ba 22 40
       3.5842042 5.407403 7.032748 2.5426536
000020 14 04 ad 3b 8d d9 28 40 84 7a 60 40 f9 42 0d bb
       0.005280027 2.6382782 3.5074778 -0.0021554811
000030 1c 08 ac 40 42 8a 83 40 e5 05 b9 40 b2 09 76 c0
       5.37599 4.110627 5.7819695 -3.8443418

bias f4 [16]
000000 10 e2 4f 3f 57 d3 a9 c0 95 d3 f3 bd a6 31 c6 3f
       0.8120432 -5.3070483 -0.119055904 1.5483902
000010 9d 2f cc 3e 10 28 37 bf 00 45 ef bf 02 de 26 3f
       0.39880076 -0.71545506 -1.8692932 0.6518251
000020 52 44 31 bd 13 71 3a 40 fb 4d 0e c0 f7 27 25 bd
       -0.043278046 2.9131515 -2.2235096 -0.040321317
000030 d4 1c e3 bf b4 f4 c5 3e d9 7e c7 3f 42 54 d4 bf
       -1.7743173 0.38663256 1.5585586 -1.6588213

running_mean f4 [16]
000000 fa bb 45 c2 80 4a 5d 40 2f 89 98 c1 78 7e 0e c1
       -49.43357 3.457672 -19.066984 -8.905876
000010 41 fa 08 c1 aa d4 64 40 49 c2 1f 41 80 e1 81 c1
       -8.561097 3.57548 9.984933 -16.235107
000020 3a 57 ad 3f c9 f2 e2 3d 84 79 b9 40 3d 1b 6c 40
       1.3542244 0.11081464 5.7960835 3.6891625
000030 19 26 a8 c0 b1 e3 8b c0 d7 62 53 c1 aa b9 cc 3f
       -5.2546506 -4.3715444 -13.211631 1.599416

running_var f4 [16]
000000 c1 8e 4e 42 5f 91 5f 3f 1b 3e 47 41 e5 b8 3e 41
       51.63941 0.87331194 12.452662 11.92014
000010 5d a2 d0 40 c3 b0 ee 3f a8 48 0e 41 a2 30 37 41
       6.5198197 1.8647693 8.892738 11.449373
000020 e1 17 c9 3e 70 0a 88 40 58 d2 ac 40 93 f8 df 3f
       0.3927603 4.251274 5.4006767 1.7497734
000030 72 e9 fe 40 44 f1 bf 40 f4 af 5d 41 44 04 c3 40
       7.9659967 5.9982014 13.855457 6.0942707

weight f4 [32, 16, 5, 5]
000000 7a c4 0c c0 23 f7 ae c0 08 0f e3 3f ac 21 97 40
       -2.199492 -5.467668 1.7738962 4.7228603
000010 bf 71 8a 40 58 5e 19 c0 37 10 07 c0 2e 36 72 40
       4.326385 -2.3963833 -2.1103647 3.7845569
000020 aa dc 80 40 be 6c be 40 24 7b 69 c0 dc 78 6c c0
       4.0269365 5.950774 -3.648141 -3.6948767
000030 ab b8 83 3f 7a b9 ae 40 92 4b 4d 41 84 8b 40 3e
       1.0290731 5.460141 12.83095 0.18803221
000040 73 76 9e bf 62 85 f4 bf ca e9 79 40 20 48 7f 40
       -1.2379898 -1.9103205 3.9048944 3.9887772
000050 7f 1f b3 bf 22 10 82 bf eb 0f 98 bd 5e 8e 88 40
       -1.3993987 -1.0161173 -0.07424911 4.267379
000060 a6 84 dc 40 1f 6c 36 40 6b 9b 6f 3c b6 6a 05 c0
       6.8911924 2.8503492 0.014624457 -2.084638
000070 9b d3 a4 bf 43 d0 39 c0 e5 4d 1c c0 da 81 cc c0
       -1.2877077 -2.9033363 -2.4422543 -6.390851
000080 e1 fb a9 40 72 9d 08 3f 2f a9 f9 c0 1f f5 8e 40
       5.311997 0.5336524 -7.8019023 4.467422
000090 b4 77 03 bf 57 0b 04 41 50 97 39 3f d0 e5 df 3f
       -0.5135453 8.2527685 0.7249651 1.7492008
0000a0 c0 1d 7a 3f 51 89 c5 40 8a b3 06 c1 e8 25 b0 40
       0.97701645 6.1730123 -8.418833 5.504627
0000b0 12 c2 9d 40 d0 3d 0f c0 3f c7 53 c0 6d 39 ba c1
       4.92994 -2.2381477 -3.309036 -23.27804
0000c0 1c a3 75 3f 02 d6 35 40 9e 15 46 bf 6c ed d7 3f
       0.9595201 2.841187 -0.77376735 1.686933
0000d0 1d be 33 40 aa c0 51 40 bb 47 a8 40 63 58 ea 3e
       2.8084786 3.2773843 5.258756 0.4577056
0000e0 9e 88 d6 bf 32 8d a2 bf e0 29 ac 3f de 11 64 40
       -1.6760442 -1.2699339 1.3450279 3.5635905
0000f0 70 64 e9 3f 67 3a 93 c0 94 b0 24 3f 03 49 08 40
       1.8233776 -4.600879 0.64331937 2.1294563
000100 5d 98 dd bf 32 73 62 40 da 65 2a 40 fa e1 bc 3f
       -1.7312123 3.538281 2.6624665 1.4756463
000110 b6 e9 43 40 4a 4f 77 40 77 94 c6 3f e0 fc c0 40
       3.0611396 3.8642144 1.5514058 6.0308685
000120 da 78 39 3e ea a0 08 40 0f 2e 03 c1 aa 5f 9d bf
       0.18112507 2.1348214 -8.198745 -1.2294819
000130 15 21 5b c0 cc 33 f7 3f ee db ad 3e 96 6f 49 3f
       -3.4238942 1.9312682 0.33956856 0.7868589
000140 be c3 10 c0 88 27 a7 c0 7b e1 50 40 5a 76 e9 3f
       -2.2619472 -5.2235756 3.2637622 1.8239243
000150 38 2d 91 40 87 66 43 40 fa 71 7e 3f 1e 35 ac 3f
       4.53677 3.0531328 0.99392664 1.345371
000160 7c 07 10 3e 45 b2 86 3f 9c a1 39 bf a4 2c 79 3f
       0.14065355 1.0523154 -0.7251222 0.9733374
000170 e8 c8 34 c0 af cd b4 bf 1c 94 40 40 40 ed 1a bf
       -2.8247623 -1.412527 3.0090399 -0.60518265
000180 c4 91 e5 3e e8 9d d9 c0 67 dc c3 bf 47 53 00 c0
       0.44837773 -6.8005257 -1.5301636 -2.0050828
000190 7c 5b 0b bf 95 22 91 40 5f 62 7d 40 77 6e 3e 40
       -0.5443647 4.5354714 3.959129 2.9754922
0001a0 eb ca 56 3f 8b 08 15 c1 e4 10 8f c0 4e d1 57 40
       0.8390338 -9.314586 -4.470812 3.37215
0001b0 2b c8 82 bf 4e 49 d5 3f 78 8a 1f c0 22 e0 e8 bf
       -1.0217336 1.6662996 -2.4928265 -1.81934
0001c0 72 6d 13 41 8e 61 50 40 9c 31 ec 40 3d c5 dc 3f
       9.21422 3.2559543 7.381056 1.7247692
0001d0 c2 89 73 3e 10 f1 17 41 81 9e 4c 40 31 de 92 40
       0.23783019 9.496353 3.1971743 4.589623
0001e0 e0 b1 09 3f e5 6f 2b c0 40 65 9f 40 3e 69 5b 40
       0.5378704 -2.6787045 4.9811096 3.4282985
0001f0 70 06 14 40 58 84 00 bd 22 46 48 40 14 a1 17 c0
       2.312893 -0.031376213 3.1292806 -2.3692064
000200 f4 2f 2c bf 4d 86 a3 3f 83 a9 40 c0 08 fd 19 c0
       -0.6726067 1.277536 -3.0103462 -2.4060688
000210 5f 67 ca bd 41 d5 de 3e 29 b9 95 bf 02 69 e6 3f
       -0.09882998 0.43522075 -1.1697131 1.8000796
000220 3a 0f d4 3f 67 1f 32 40 1e 39 a7 be 21 39 72 bf
       1.6567147 2.7831666 -0.32660764 -0.9461842
000230 be 8c 88 c0 b8 08 70 3f 4b a5 0e c1 fc e3 8d c0
       -4.2671804 0.93763304 -8.915355 -4.43408
000240 ff 19 cd c0 94 18 80 40 13 3a ab 3e 14 ac 1e c1
       -6.4094234 4.0030003 0.33442745 -9.917011
000250 29 28 81 c0 bf 5d 30 c0 35 90 df be 4a af cd c0
       -4.0361524 -2.7557218 -0.4366471 -6.4276476
000260 31 d4 d2 3e ac 48 44 40 4c 85 2a bd 9f 96 d2 3e
       0.41177514 3.0669355 -0.041631028 0.4113054
000270 f0 e9 0e bf 52 2d 6b 3f 6c 20 62 40 dc 53 2a c0
       -0.5582571 0.9186603 3.5332289 -2.6613684
000280 f1 22 97 bf 5a c9 28 40 f6 8b 32 40 79 e4 49 40
       -1.1807538 2.6372895 2.7897925 3.1545699
000290 66 53 76 40 4d d9 0a c0 6e cd 86 c0 a3 7d 6d 40
       3.8488402 -2.169513 -4.212577 3.7107933
0002a0 20 a8 91 bf d5 9a 92 c0 6a 43 a2 bf c7 78 b7 3e
       -1.1379433 -4.5814004 -1.2676823 0.35834333
0002b0 53 32 af 40 c0 6a 67 c0 59 02 78 c0 b5 35 aa c0
       5.474893 -3.6158905 -3.8751433 -5.319056
0002c0 4a c4 b9 3f cf b2 92 3f 94 fb da bf 2b 7b 32 3f
       1.4513028 1.1460818 -1.7108026 0.6971919
0002d0 ce 9c 40 c0 da 21 aa 3f f6 7e 54 c0 99 ed 81 c0
       -3.0095706 1.3291581 -3.320249 -4.0602536
0002e0 3d 87 6f c0 53 7d be c0 9a 12 a3 c0 67 ab 97 bf
       -3.7426293 -5.9527984 -5.0960207 -1.1849183
0002f0 aa 91 42 be e1 af 34 40 49 f1 8d c0 c4 da 7e bf
       -0.19000879 2.8232348 -4.4357038 -0.9955256
000300 8b b8 b6 bf 0e 50 46 3f 71 a3 67 40 ae b7 f0 c0
       -1.4275068 0.77465904 3.6193507 -7.522422
000310 1c 8f 06 c0 1c 9a 2e 40 c6 9d 9a bf 11 52 08 c0
       -2.1024847 2.728156 -1.2079399 -2.130009
000320 72 fc 9f bc c8 08 fc 3d 63 7b 57 3d ed 55 4e 3f
       -0.019529555 0.123063624 0.052607905 0.8059986
000330 53 2f 4d 3d ac 4a bb be b7 39 fb be 2f cd 95 be
       0.05009396 -0.36580408 -0.4906747 -0.29258105
000340 de 78 3d be 84 8d 23 bf 3d c9 0f bf f3 b2 63 bf
       -0.18503138 -0.6388781 -0.5616644 -0.8894493
000350 e1 61 03 bf 19 4b 47 bf 3e 21 93 bf d5 5e 9d bd
       -0.51321226 -0.77848965 -1.149452 -0.076841034
000360 cf bf 40 bf 6a ef 08 bf 63 eb ef bd a6 af a1 be
       -0.75292677 -0.53490317 -0.11714818 -0.31579322
000370 32 53 bc be 0d 3a 83 bd f4 ce f3 be f7 26 f2 be
       -0.36782223 -0.06407557 -0.4761883 -0.47295353
000380 f9 35 c2 be 2b 3e 03 c0 ad b2 09 c0 f1 0e 37 3f
       -0.37931803 -2.0506694 -2.1515305 0.71507174
000390 c9 38 a4 bf 29 28 50 40 69 17 b8 c0 16 bc d3 3f
       -1.282983 3.2524512 -5.7528577 1.6541774
0003a0 ee 01 7d bf fa b6 a5 3e 6c a1 d9 3e 2f c7 6e bf
       -0.9883107 0.32366163 0.42505968 -0.9327268
0003b0 fc 54 f0 3f ae fd 50 c0 a6 c0 af 3f dd bf 9e 40
       1.8775935 -3.2654834 1.3730667 4.960921
0003c0 0e 9e d6 bf 84 d4 98 3f 2d 4c 71 c0 21 91 94 c0
       -1.6766984 1.1939855 -3.7702744 -4.642716
0003d0 09 c0 20 bf b7 d7 77 40 93 d7 4e c0 52 0d 82 bf
       -0.6279302 3.8725412 -3.2319076 -1.0160315
0003e0 78 89 4d bf c6 ed 5c 3e 25 91 b3 bf fa e8 4e 40
       -0.80287886 0.21575078 -1.402867 3.2329698
0003f0 3e ad f8 be 80 b1 44 3f 5d 61 4a c0 69 44 16 40
       -0.48569673 0.76833344 -3.1621926 2.3479254

bias f4 [32]
000000 0b f7 73 40 83 38 17 40 fa 39 3d 40 bd ce 8b bd
       3.8119533 2.3628242 2.9566636 -0.068265416
000010 0a 7d 36 40 47 08 27 c0 58 a8 52 3c f7 c8 20 40
       2.8513818 -2.6098802 0.012857519 2.512266
000020 c5 9e d1 bf 6c bc 0b 40 8c 0b 9a c0 4a 27 88 40
       -1.6376578 2.1833754 -4.8139095 4.254796
000030 e3 35 5e c0 51 26 13 40 59 f1 85 bd 51 49 22 40
       -3.472039 2.2992136 -0.06540174 2.5357249
000040 1e 07 22 c0 ec 62 ae bd 44 13 08 c0 a5 98 87 bf
       -2.5316844 -0.085149616 -2.1261759 -1.0593458
000050 44 18 67 3f 1b 22 bb bf 71 42 a5 3f df 45 87 bf
       0.902714 -1.4619783 1.2910901 -1.0568198
000060 5c 88 be 3f 2c d1 8f 3d cb 2d cb 40 a3 3d 81 bf
       1.4885364 0.07022318 6.34934 -1.0096935
000070 1a ed 16 40 73 ae 32 c0 f7 df 66 c0 7b f8 aa bf
       2.3582215 -2.7918975 -3.6074197 -1.335708

weight f4 [32]
000000 80 46 f5 40 69 60 2c 40 7e 4b 40 40 1e 6b 75 bd
       7.664856 2.6933844 3.0046077 -0.059916608
000010 d9 d4 6d 40 9c d8 be 40 f2 84 36 b9 5e f7 9c 40
       3.7161162 5.9639416 -0.00017406399 4.905196
000020 7d 77 90 40 e5 1d 81 40 f2 a0 a1 40 b2 cd 3b 40
       4.514586 4.034899 5.0508966 2.9344296
000030 01 10 79 40 35 42 41 bb bd e0 a8 3b fe 36 9c 40
       3.8916018 -0.0029488925 0.005153744 4.881713
000040 15 dc 4e 40 88 94 45 3c f2 bd dd 40 ac 7e f6 40
       3.2321827 0.012059338 6.9294367 7.702963
000050 05 fc 45 c0 c8 cd 51 40 a9 40 96 40 7f 67 bf 40
       -3.093507 3.278185 4.695393 5.981384
000060 0c 1d 41 41 80 7e 43 3c 59 a3 c2 40 64 da de bb
       12.0695915 0.011932015 6.08244 -0.0068009365
000070 b4 0b 28 40 8b 5b 1e 40 6c 08 d3 3f c1 cb 57 c0
       2.6257143 2.4743373 1.6486945 -3.3718112

bias f4 [32]
000000 19 cb b0 bf 36 df 32 be 7c e0 6e bf 48 99 dd be
       -1.381198 -0.1746796 -0.93311286 -0.43281007
000010 75 fb 13 c0 b8 05 32 bf c1 f5 c5 bd ec 11 df bf
       -2.3122227 -0.69539976 -0.096660145 -1.7427344
000020 36 7a 6a c0 90 97 8b bf fd 29 60 c0 71 c2 25 c0
       -3.6637092 -1.0905628 -3.5025628 -2.5899928
000030 80 db ce bf 87 b4 08 bd d2 45 38 be a2 f3 8e bf
       -1.6160736 -0.03337529 -0.17995384 -1.1168101
000040 4e c9 07 3f 72 3a fd bd 9c 70 5a 3f 42 c4 e9 bf
       0.5304154 -0.12364663 0.8532808 -1.8263018
000050 c4 d3 10 3f fc 88 02 3f ac 94 21 3f 7e 87 28 3d
       0.5657313 0.5099027 0.6311748 0.04114484
000060 76 3a 46 c1 6d bd 97 be 7e 0e 86 bf e0 f2 4b bd
       -12.389273 -0.29636708 -1.0473173 -0.04979217
000070 68 4a 7a bf cc 51 87 c0 d4 06 40 c0 d5 02 bd 3c
       -0.97769785 -4.228735 -3.0004168 0.02307264

running_mean f4 [32]
000000 be 4e 3a c1 85 f7 b3 43 9e c9 7d 41 44 09 32 42
       -11.644224 359.93375 15.861723 44.50905
000010 86 62 fb c2 d1 c2 38 c3 96 44 20 41 c3 2a 5b 43
       -125.69243 -184.761 10.016745 219.16704
000020 ad 36 c1 43 42 6d c4 41 3a 26 c1 c1 04 36 b9 43
       386.42715 24.553349 -24.143665 370.422
000030 3f f9 d5 40 99 69 9f 42 d4 e0 1b c3 55 f4 49 43
       6.6866755 79.706245 -155.87823 201.95442
000040 7c f6 54 42 f2 c7 54 c2 aa 6e 15 c2 c1 bc bf 42
       53.240707 -53.19526 -37.35807 95.86866
000050 9e 3a 78 c3 29 de bb c3 15 43 73 43 5c 9d 0a c4
       -248.22897 -375.73563 243.26204 -554.45874
000060 22 53 a5 42 47 e9 1c c2 b6 7c 15 44 73 1d 15 43
       82.66237 -39.22781 597.9486 149.11504
000070 75 d5 87 42 91 df 07 43 03 6c af 43 ee fb 96 c3
       67.91691 135.8733 350.84384 -301.9682

running_var f4 [32]
000000 c9 64 c1 47 28 e3 b1 47 26 2c 0d 47 8d af 8b 44
       99017.57 91078.31 36140.15 1117.486
000010 1e 34 32 47 d2 47 8c 47 a4 28 07 43 01 3a 8d 47
       45620.117 71823.64 135.15875 72308.01
000020 64 86 af 47 7d 51 96 47 5b 08 29 47 fb de 7a 47
       89868.78 76962.98 43272.355 64222.98
000030 c7 32 a2 47 c6 d9 f4 45 f1 06 dc 45 cc c5 ac 47
       83045.555 7835.2217 7040.8677 88459.59
000040 77 25 83 47 b2 d0 8a 44 aa 13 6d 47 2d fa f3 47
       67146.93 1110.5217 60691.664 124916.35
000050 f0 bd e5 47 d8 59 f1 47 5b 54 9b 47 9c df 06 48
       117627.875 123571.69 79528.71 138110.44
000060 84 ce 0a 47 ad ee 16 44 81 d8 58 48 d8 15 77 46
       35534.516 603.7293 222050.02 15813.461
000070 05 34 ad 47 ff 84 4d 47 5c 07 17 48 f4 65 2d 47
       88680.04 52612.996 154653.44 44389.953

weight f4 [32, 32, 5, 5]
000000 c1 42 5a 40 42 31 a0 bf b3 27 82 be 9e 7e 3c c0
       3.4103243 -1.2515032 -0.25420913 -2.945228
000010 e0 62 ec c0 cb 45 62 40 2d 9b a9 40 66 e1 1e c0
       -7.3870697 3.5355098 5.3001924 -2.4825072
000020 34 ca 4f c1 d9 cd 36 40 a8 50 5f be 16 83 fd bf
       -12.986866 2.856314 -0.21808112 -1.9805629
000030 39 7c f9 40 dc 98 7d 3f 0f b5 03 c0 15 6e cf c0
       7.796414 0.9906137 -2.057926 -6.4821877
000040 92 61 e2 3e 1f c1 13 40 b8 8c f1 3f 84 3f bc be
       0.44215065 2.3086622 1.8871069 -0.3676721
000050 6b 3c 7d c0 d5 a2 55 c0 4e 7a 27 40 8f 46 13 3f
       -3.9568126 -3.3380635 2.61684 0.5752954
000060 76 8d 36 bf e7 73 f9 bf b6 76 b8 3e b5 75 60 c0
       -0.713096 -1.9488496 0.3602807 -3.5071843
000070 b9 f7 9a 40 62 6a 4a c1 b4 9f a2 bf 84 16 68 bf
       4.8427396 -12.650972 -1.2704988 -0.90659356
000080 85 5a 9e bd e4 96 3c 40 78 c1 ea 3f cc b8 a9 c0
       -0.07732109 2.9467096 1.8340292 -5.303808
000090 5a be 8f c0 3d 25 18 c0 3e 46 7b c0 bc 1d 55 3f
       -4.4919863 -2.3772728 -3.9261622 0.83248496
0000a0 f3 75 5f c1 ff a8 c4 c0 e1 65 00 c1 56 44 a4 3f
       -13.966296 -6.1456294 -8.024873 1.2833354
0000b0 73 c0 4e be 2f 17 51 c1 2b 1e a2 bf 91 7a 0e 3f
       -0.20190601 -13.06816 -1.2665457 0.5565577
0000c0 69 3b 26 3f 03 c1 11 c0 9a aa c1 c0 69 de d4 c0
       0.649344 -2.2774055 -6.0520754 -6.6521497
0000d0 c1 3f 94 40 0a e4 0b 41 cd cc 40 c1 1b a8 44 41
       4.6327825 8.743174 -12.05 12.291041
0000e0 57 1a 70 bf b3 e0 b8 40 7b a4 14 40 f7 a8 41 c0
       -0.9379019 5.777429 2.322539 -3.0259378
0000f0 d6 cb a6 bf ba 2d 63 40 49 74 39 c1 f7 ca 3c c0
       -1.3030956 3.549666 -11.59089 -2.949888
000100 c8 c4 d7 3f b1 79 b6 c0 f7 4a 3f be df e7 d1 40
       1.6856928 -5.702355 -0.1868094 6.5595546
000110 ca 5f 5b bf 90 6a db 3f 3e c9 c0 3f b6 53 b4 3f
       -0.8569304 1.7141895 1.5061414 1.4088047
000120 5d f5 76 c0 36 41 6e 3e 51 1e d9 40 72 36 d6 3e
       -3.8587258 0.23267063 6.7849507 0.41838413
000130 d5 3d 0a 3f 48 6a d0 3e 91 d3 de 3e 5a 42 26 3e
       0.540006 0.40706086 0.43520787 0.16236249
000140 10 cf e2 3d 9e ce d9 3e 79 ec ae 3e be 1f 4b bd
       0.1107465 0.4254045 0.3416479 -0.04959082
000150 b0 a5 72 3d 1e b8 2a be 4b 5e 29 3e 4a 00 1f bd
       0.059240043 -0.16671798 0.16539876 -0.038818635
000160 d7 69 1e bd f2 2b 90 be 22 f8 1a 3c 43 e2 a0 3e
       -0.038675155 -0.28158528 0.009458574 0.31422624
000170 6d 84 9f 3e 70 66 ed 3d e3 83 ad bc 71 78 b8 bd
       0.3115572 0.11591804 -0.021181053 -0.090073474
000180 a3 b2 0f 3d 09 9a 92 bc a9 78 43 3e 15 1e dd bd
       0.03508247 -0.017895715 0.19088997 -0.10796753
000190 d3 28 84 be 3d e2 bc c0 b5 2a fb be 3a 35 74 c0
       -0.25812396 -5.902617 -0.4905602 -3.8157487
0001a0 0c 28 16 c0 7c c9 02 c1 1f 7d 4e c0 93 97 12 c0
       -2.3461943 -8.1741905 -3.2263868 -2.2905014
0001b0 08 6e 12 40 6c 0d 6f bf 76 e7 70 40 bf 4a c0 3f
       2.2879658 -0.93379855 3.7641273 1.5022811
0001c0 21 0f 09 c1 4c 71 52 41 e4 9a af 40 10 9b 8a 40
       -8.566194 13.15266 5.4876575 4.3314285
0001d0 a3 43 67 40 69 20 ca c0 5f 54 68 c0 21 a8 0d 41
       3.6135032 -6.3164563 -3.6301496 8.853547
0001e0 02 d5 ae 3f 2f 92 91 c0 ea 69 8b c0 be 99 fe bf
       1.3658755 -4.5490947 -4.356679 -1.9890668
0001f0 df 9f 8e 40 f2 ab 26 c0 14 fe c2 3f ef 46 bb be
       4.4570155 -2.6042447 1.5233788 -0.36577556
000200 3d 71 2f c1 c1 9f 86 c0 4e 76 bb bf 5e 27 96 c0
       -10.965146 -4.207001 -1.4645479 -4.6923056
000210 9f ef 43 40 af 21 93 c0 75 77 f1 bf 53 d0 a5 40
       3.0615003 -4.597862 -1.886458 5.18168
000220 0c 3c ef 3f 1e 3e 6e c0 07 97 9e 40 5b 85 d8 be
       1.86902 -3.7225413 4.955936 -0.42289242
000230 e0 b7 8d 40 d5 4c 64 3e 86 e4 8f c0 42 23 8e 40
       4.4286957 0.22294934 -4.496646 4.441804
000240 4c 04 db 40 fb 97 b2 3f 45 31 03 c0 df 60 fb c0
       6.8442745 1.3952631 -2.0498822 -7.855575
000250 dd 9c 2b 40 d6 89 38 40 18 21 7e bd f5 79 be 3d
       2.6814492 2.8834128 -0.06204328 0.09300605
000260 e5 1f d6 3c db 0f 86 3d bf 7a 2b 3e 06 84 b3 bc
       0.026138255 0.06545993 0.16746043 -0.02191354
000270 a8 00 06 3d 1c 18 be bd 5c 07 89 be ea 69 f1 3d
       0.03271547 -0.09281942 -0.26763427 0.1178778
000280 6f 7b c8 3d 21 e2 b9 3d 98 6a 83 be 9d 89 99 3d
       0.09789168 0.09076334 -0.25667262 0.07496951
000290 a4 20 ba 3c 9c c5 97 bd 1d 9a 82 3d 4f f2 6b 3c
       0.022720642 -0.07410738 0.06377051 0.014401033
0002a0 00 a1 d3 3d eb 91 85 bc 45 9d 18 be 66 e6 b6 3c
       0.10333443 -0.01630493 -0.14903744 0.02232666
0002b0 7b 20 6b be 8c 4e 83 bd c2 20 82 3e 3f f7 35 c0
       -0.22961609 -0.06411466 0.25415617 -2.8432157
0002c0 6b 00 2e 40 e2 c2 c4 40 96 f0 c7 bf f9 11 ab 40
       2.7187755 6.1487894 -1.5620296 5.345944
0002d0 53 71 cb 3f 0c 96 51 40 50 2d 49 3f 59 c8 64 c0
       1.5893959 3.2747831 0.78584766 -3.5747283
0002e0 37 ab 88 40 fa ee 59 be dd 87 61 3e f8 93 31 c1
       4.2709002 -0.21282569 0.22024484 -11.098625
0002f0 a7 48 d4 40 57 93 d1 c0 28 36 92 40 46 f2 f8 3f
       6.6338687 -6.549236 4.569111 1.9448936
000300 fd f1 8c c1 9a d8 ce be 25 ba 26 c1 9a f8 fb bf
       -17.618158 -0.4039963 -10.420445 -1.9685242
000310 dc dc cb bf e3 0f 56 c1 31 c6 25 41 ce 68 37 bf
       -1.5926776 -13.378879 10.360887 -0.71644294
000320 e8 38 95 40 ec 98 e1 3f b0 5a 9c be 9f fe eb 3e
       4.6631966 1.7624793 -0.3053794 0.46092698
000330 0a 19 0c 40 04 91 9b 40 12 32 ce 40 24 c9 fb 3e
       2.1890283 4.861452 6.443612 0.49176896
000340 d6 57 b7 40 d2 80 07 c1 eb bb 9e c1 45 27 a1 c1
       5.729472 -8.46895 -19.841757 -20.144175
000350 e4 89 59 c1 24 d0 95 c0 16 61 24 c1 f7 35 c8 3f
       -13.596165 -4.681658 -10.273703 1.5641469
000360 d7 ca 4d c1 d5 42 49 40 76 cb 63 3f 50 95 04 40
       -12.862021 3.144704 0.8898233 2.0716133
000370 83 af 1a c1 b4 1d 22 c1 fa d3 ff c0 35 15 0c bf
       -9.66785 -10.132252 -7.994626 -0.5471986
000380 dc 1f 43 40 86 81 c4 3f c8 a9 32 c0 b4 63 04 40
       3.0488195 1.5352027 -2.7916126 2.0685854
000390 7b 8b 42 be 36 4d 08 c1 f7 05 a2 c0 5a 0e aa c1
       -0.1899852 -8.51885 -5.063228 -21.257008
0003a0 1d 7b 87 40 59 b1 74 40 99 26 43 c0 53 c6 f7 c0
       4.2337785 3.8233244 -3.0492308 -7.7429595
0003b0 35 5a a2 c0 4c 8f dd bf 90 99 71 40 d4 3f 73 bf
       -5.0735116 -1.7309356 3.7749977 -0.9501927
0003c0 81 16 af c0 4c 60 ce c0 34 b2 a3 40 8a d9 0c 41
       -5.471497 -6.449255 5.1155033 8.80311
0003d0 44 76 a8 3f b0 00 30 c1 62 f3 11 40 fc 08 12 bf
       1.3161092 -11.000168 2.28048 -0.5704496
0003e0 bb f7 ca bf 0c 8b cf 3f 35 6f 5d bf 34 ce 15 40
       -1.5856851 1.6214309 -0.86497813 2.3407106
0003f0 55 3e da bf ad 7e 4c 41 c1 8b 22 40 fa b1 c6 c0
       -1.7050272 12.780927 2.53978 -6.2092257

bias f4 [32]
000000 e7 40 22 c0 e1 66 91 3f 07 01 10 3d 0b 33 9e be
       -2.5352113 1.1359521 0.03515723 -0.30898318
000010 86 17 71 40 8d 87 d7 3e e8 82 98 bf fc 76 39 40
       3.7670608 0.42095605 -1.191495 2.8978872
000020 15 ed 55 40 6b 0d b6 bf 4f 99 71 3f b8 c1 69 c0
       3.3425953 -1.4222845 0.94374555 -3.6524487
000030 54 0a 96 40 1e 84 95 bf 81 1f 12 40 4a bc b5 bf
       4.6887608 -1.1680944 2.2831728 -1.4198086
000040 a2 4c 9e 3d 6c 0b 4d 3f 47 ab 8e bf cb 1a dd 3d
       0.0772946 0.80095553 -1.114602 0.10796126
000050 3a 67 10 c0 55 79 3c 40 13 32 90 bf 7b a6 1a bd
       -2.2563004 2.9449055 -1.1265281 -0.037756424
000060 30 3c 88 bf 88 a5 cf 3c 32 f5 08 c0 30 98 3b c0
       -1.0643368 0.025347486 -2.1399655 -2.9311638
000070 66 76 06 c0 26 01 24 40 a1 4f c6 3f 27 02 85 bf
       -2.1009765 2.56257 1.5493051 -1.0391282

weight f4 [32]
000000 5d db fe 41 9c 9e dc 41 00 82 f0 41 aa e5 12 42
       31.857111 27.577446 30.063477 36.72428
000010 ab d6 de 41 7e c4 eb 41 d3 7c ea 41 86 08 c8 41
       27.854818 29.470943 29.31095 25.004162
000020 fb 69 f8 41 5e bc 1c 42 a6 20 04 42 8e c1 fa 41
       31.051748 39.183952 33.031883 31.34451
000030 69 06 13 42 fc 29 dd 41 b1 c3 13 42 ba 74 16 42
       36.75626 27.6455 36.941105 37.61399
000040 e4 06 06 42 4a 99 ea 41 5f 73 19 42 ea 95 f2 41
       33.50673 29.324848 38.362667 30.3232
000050 c4 4a 27 42 e7 4c 08 42 95 9a 08 42 07 29 e6 41
       41.823013 34.0751 34.15096 28.770033
000060 5a ff d0 41 48 74 4b bb 77 7c d9 41 54 be f6 41
       26.124683 -0.003104465 27.185774 30.842934
000070 da 5b ef 41 58 db cd 41 af d8 de 41 ef 9c e3 41
       29.91985 25.732101 27.855803 28.451628

bias f4 [32]
000000 da 20 19 42 61 90 17 42 11 51 15 42 1c 28 17 42
       38.28208 37.890995 37.329166 37.78917
000010 cc 82 15 42 e0 d2 15 42 92 68 12 42 69 84 13 42
       37.37773 37.455933 36.60212 36.879307
000020 64 74 15 42 93 84 17 42 3a b2 14 42 62 90 18 42
       37.363663 37.879467 37.17405 38.141
000030 53 0a 14 42 4e 9c 12 42 1e a2 16 42 38 d1 11 42
       37.010082 36.65264 37.658318 36.454315
000040 e4 82 14 42 60 6e 19 42 e2 ca 12 42 a6 22 16 42
       37.127823 38.357788 36.698128 37.533836
000050 26 a9 10 42 85 08 14 42 fa 25 13 42 28 ef 15 42
       36.165184 37.00832 36.787086 37.48355
000060 26 10 15 42 d0 ca cc bd 94 1a 16 42 38 99 17 42
       37.26577 -0.09999621 37.525955 37.899628
000070 95 d3 1a 42 e8 9e 14 42 37 e3 14 42 0e 5a 18 42
       38.706623 37.15518 37.22189 38.087944

running_mean f4 [32]
000000 fd 0c 60 c3 aa cb cf c2 5a 86 83 c2 00 6f dd c2
       -224.05074 -103.89778 -65.762405 -110.7168
000010 4f ef 66 c3 13 3f 34 43 98 78 7c c3 55 fb d5 c2
       -230.9348 180.24638 -252.47107 -106.99088
000020 94 80 1d c3 cd 58 49 c3 2e 80 80 c3 c5 0b 12 c3
       -157.50226 -201.34688 -257.0014 -146.04597
000030 43 3e 34 c3 b2 ff 4b c2 17 e0 a9 c3 49 bc 9c c3
       -180.24321 -50.999702 -339.7507 -313.47098
000040 0a 2b b8 c3 ff 66 83 c3 fa b5 20 c3 61 a1 72 c3
       -368.33624 -262.80466 -160.71085 -242.63039
000050 f4 7f 2a 42 59 8c 90 c3 b5 7a 6e c3 1e 81 44 c3
       42.624954 -289.09647 -238.47932 -196.50436
000060 bc bd 21 c2 c8 68 3d c1 04 08 95 c1 ab 0f 2f c3
       -40.435287 -11.838081 -18.628914 -175.0612
000070 8c 89 ff c2 f0 13 cd c2 a0 02 42 c3 a0 4c 76 c3
       -127.76865 -102.53894 -194.01025 -246.29932

running_var f4 [32]
000000 d7 95 bc 48 e5 ea d2 48 1e 8d b3 48 04 6f 71 48
       386222.72 431959.16 367720.94 247228.06
000010 db 11 9f 48 8e 5e c9 48 84 71 97 48 72 7a c7 48
       325774.84 412404.44 310156.12 408531.56
000020 46 d3 b5 48 1f 6c a5 48 16 cd ab 48 72 35 81 48
       372378.2 338784.97 351848.7 264619.56
000030 64 80 cd 48 37 4d 9d 48 29 df a3 48 15 0d bb 48
       420867.12 322153.72 335609.28 383080.66
000040 d2 c4 eb 48 78 8f ba 48 74 62 c7 48 ee c3 9b 48
       482854.56 382075.75 408339.62 319007.44
000050 0d 7c 26 48 52 db c5 48 1c 02 88 48 5a 93 d5 48
       170480.2 405210.56 278544.88 437402.8
000060 60 ab d5 48 53 e3 85 42 c3 37 c0 48 61 da c7 48
       437595.0 66.94399 393662.1 409299.03
000070 e5 45 b0 48 10 50 c2 48 55 33 d6 48 a0 2c b5 48
       361007.16 397952.5 438682.66 371045.0

weight f4 [64, 128]
000000 9b 38 26 42 69 0f 05 42 60 f4 01 42 7c 20 0b 42
       41.55528 33.26505 32.488647 34.781723
000010 ea cf 29 42 de 9d 0d 42 1a 83 02 42 c9 c6 0d 42
       42.45304 35.404167 32.62803 35.444126
000020 1f f2 1a 42 b5 3d 08 42 7c db 00 42 46 76 0c 42
       38.736446 34.06026 32.21434 35.1155
000030 d4 05 38 42 a9 1a 07 42 d5 d2 03 42 fd cd 11 42
       46.00569 33.776035 32.95589 36.45116
000040 ed 0a 2e 42 e6 9e 07 42 09 a1 09 42 15 fe 0e 42
       43.51067 33.905174 34.40726 35.748127
000050 fe 03 19 42 d0 4a 07 42 4f 18 01 42 7e dd 0c 42
       38.2539 33.82306 32.27374 35.2163
000060 4c a3 1e 42 26 f7 05 42 e7 d8 08 42 d5 bc 12 42
       39.65947 33.491356 34.21182 36.684406
000070 4d 1a 1a 42 af ac 05 42 cd 13 08 42 52 57 0d 42
       38.525684 33.418636 34.019337 35.335274
000080 ab 9e 24 42 31 42 07 42 c6 a1 05 42 2a 28 13 42
       41.15495 33.81464 33.40798 36.789223
000090 21 91 3a 42 1e 7d 09 42 4b 59 ff 41 98 0f 11 42
       46.641727 34.372185 31.9186 36.26523
0000a0 6c fe 20 42 7e 93 07 42 61 4c 04 42 b7 b1 13 42
       40.24846 33.894035 33.07459 36.92355
0000b0 71 dd 2f 42 86 d1 04 42 45 e3 01 42 97 9b 0f 42
       43.96625 33.204613 32.471943 35.901943
0000c0 89 b6 38 42 c2 bb 07 42 20 37 f5 41 a8 d9 0e 42
       46.178257 33.933357 30.651917 35.712555
0000d0 30 5b 1e 42 91 06 05 42 dc fd 0a 42 a6 88 0d 42
       39.58905 33.256413 34.74791 35.383446
0000e0 a3 d9 34 42 f4 9f 07 42 db 44 01 42 f1 22 10 42
       45.212536 33.906204 32.31724 36.034122
0000f0 53 d0 32 42 de 71 05 42 fb 88 f0 41 c7 bc 09 42
       44.70344 33.3612 30.066885 34.434353
000100 31 d7 27 42 dc 84 09 42 ba d6 03 42 60 ad 08 42
       41.960148 34.379745 32.959694 34.16931
000110 f5 5d 2d 42 4f 97 04 42 df fc 08 42 54 22 0e 42
       43.341755 33.147762 34.246944 35.533524
000120 5a 8e 45 42 c6 ee 08 42 3d 12 f0 41 09 e1 06 42
       49.389015 34.233177 30.008905 33.71976
000130 24 b2 24 42 62 07 06 42 8d b3 0b 42 44 3b 11 42
       41.173965 33.50721 34.925343 36.307877
000140 3e ff 85 42 2f c0 0c 42 c1 c9 02 42 7f fa 0c 42
       66.99852 35.18768 32.697025 35.244625
000150 29 fe 24 42 2a bf 09 42 27 c3 f7 41 71 d8 0a 42
       41.248203 34.436684 30.97029 34.71137
000160 a8 fe 22 42 b9 09 09 42 28 0f 01 42 29 ae 0e 42
       40.748688 34.259495 32.2648 35.67008
000170 67 08 27 42 27 b2 09 42 8b 9c 00 42 2d b7 0c 42
       41.758205 34.423977 32.152874 35.178883
000180 90 81 18 42 49 a2 07 42 e2 11 f9 41 3f 8c 0e 42
       38.126526 33.90848 31.133732 35.63696
000190 9e 95 c5 3d 62 d1 3a 3e 91 f8 86 3d 3d 19 1b 3d
       0.09647678 0.18243936 0.06590379 0.037865866
0001a0 74 13 1b 42 4e df 03 42 1a f8 06 42 1e e7 0d 42
       38.768997 32.96807 33.742287 35.4757
0001b0 29 02 2f 42 53 dc 08 42 cf c5 fa 41 4a 19 09 42
       43.75211 34.21516 31.346586 34.274696
0001c0 70 ae 30 42 62 2b 09 42 fb cc 00 42 b5 53 0d 42
       44.17035 34.292366 32.200176 35.331745
0001d0 43 22 1d 42 e5 80 04 42 fc c3 08 42 9f 31 0d 42
       39.28346 33.125874 34.19139 35.29846
0001e0 31 7a 1e 42 a8 a6 05 42 7c 4b 07 42 4b dd 0f 42
       39.619328 33.41275 33.823715 35.966106
0001f0 60 d2 2f 42 e6 ef 06 42 b7 23 06 42 08 23 0e 42
       43.955444 33.734276 33.534878 35.53421
000200 fc 5d 25 42 f2 f1 04 42 11 50 01 42 2b 64 0b 42
       41.34178 33.236275 32.32819 34.84782
000210 aa 79 29 42 d4 74 0d 42 ee a1 02 42 a4 d4 0d 42
       42.368813 35.36409 32.658134 35.457657
000220 f4 bd 19 42 ea 6f 08 42 b4 b0 01 42 89 f3 0c 42
       38.4355 34.10929 32.42256 35.237827
000230 5e 76 38 42 44 ee 07 42 76 20 04 42 82 f3 11 42
       46.115593 33.98268 33.0317 36.4878
000240 7c ce 2d 42 dd 0a 07 42 79 41 0a 42 c5 52 0f 42
       43.451645 33.76061 34.56394 35.83083
000250 a2 f6 18 42 36 85 07 42 d0 00 01 42 7e fd 0c 42
       38.240852 33.88009 32.250793 35.24755
000260 7e 70 1e 42 6f b1 05 42 33 05 08 42 70 0d 13 42
       39.609856 33.423275 34.005077 36.763123
000270 3f 80 19 42 71 25 05 42 db a5 07 42 f7 d5 0d 42
       38.37524 33.286564 33.91197 35.45895
000280 cd 30 25 42 54 12 07 42 a8 60 05 42 fd 40 13 42
       41.297657 33.7679 33.34439 36.813465
000290 59 33 3a 42 1f bd 09 42 a9 e9 fe 41 4b ed 10 42
       46.550144 34.43469 31.864092 36.23173
0002a0 9b 9d 20 42 8a 16 07 42 50 38 04 42 ee b1 13 42
       40.15391 33.77201 33.054993 36.92376
0002b0 86 fe 2f 42 96 10 05 42 84 ef 01 42 c0 18 0e 42
       43.998558 33.266197 32.483902 35.52417
0002c0 57 b1 38 42 84 c2 07 42 27 2e f4 41 a3 fd 0e 42
       46.173183 33.939957 30.522535 35.747692
0002d0 86 e4 1e 42 de 50 05 42 89 d7 0a 42 73 a5 0d 42
       39.723167 33.32897 34.710484 35.41157
0002e0 b8 9a 34 42 0c b8 06 42 fa 08 02 42 9a e8 0f 42
       45.151093 33.679733 32.508766 35.97715
0002f0 a7 54 33 42 b5 5a 05 42 d2 03 f0 41 db c3 09 42
       44.83267 33.33858 30.001865 34.441265
000300 8d 3b 28 42 d5 07 09 42 1e c6 03 42 ce 23 09 42
       42.058155 34.25765 32.943474 34.284966
000310 d2 00 2d 42 01 b1 04 42 2f 08 09 42 f1 69 0d 42
       43.2508 33.172855 34.25799 35.35346
000320 37 59 44 42 56 89 09 42 87 ce f0 41 d2 3f 06 42
       49.087124 34.384117 30.100843 33.562325
000330 4e ee 24 42 64 38 05 42 6d fc 0a 42 7a 17 11 42
       41.23272 33.30507 34.74651 36.272926
000340 f3 17 86 42 03 ec 0c 42 e0 d3 02 42 f6 e6 0c 42
       67.046776 35.23048 32.70691 35.225548
000350 6e ad 25 42 f0 0d 09 42 f8 3a f7 41 e3 63 0b 42
       41.419365 34.26361 30.903793 34.847546
000360 a6 0f 22 42 35 e7 08 42 37 c0 00 42 7e 91 0d 42
       40.51528 34.22579 32.18771 35.392082
000370 f0 a7 27 42 fe ba 09 42 72 3d 00 42 e6 82 0d 42
       41.914 34.43261 32.060005 35.37783
000380 10 b7 17 42 bf 32 07 42 b9 43 f8 41 43 fe 0e 42
       37.928772 33.799557 31.033068 35.748302
000390 3b 90 89 3c fc ae 4f 3d 9f 61 8d 3d f7 cd d5 3d
       0.016792407 0.050703987 0.06903385 0.10439675
0003a0 d3 41 1b 42 af 93 03 42 bb 25 07 42 84 a1 0c 42
       38.81428 32.894222 33.786846 35.15773
0003b0 07 1e 2f 42 e6 d7 08 42 1c b5 fa 41 1f 8f 09 42
       43.779324 34.21084 31.338432 34.389767
0003c0 61 4a 30 42 08 49 09 42 27 a7 00 42 fd 97 0d 42
       44.072636 34.32132 32.163235 35.398426
0003d0 a1 90 1d 42 c6 5d 04 42 09 b9 08 42 3a f4 0b 42
       39.39124 33.091576 34.1807 34.988503
0003e0 ab 06 1f 42 b4 e1 04 42 45 ed 06 42 00 93 0f 42
       39.75651 33.220413 33.73171 35.893555
0003f0 5d f7 2f 42 9b 9a 06 42 9f 20 06 42 14 52 0e 42
       43.991566 33.65098 33.531857 35.580154

bias f4 [64]
000000 ba 65 6f 42 4d 7b 6f 42 03 bc 6f 42 fb 74 6f 42
       59.849342 59.87041 59.933605 59.86424
000010 ef 8f 32 be 8e 87 6f 42 a4 ef 6f 42 56 99 6f 42
       -0.17437719 59.882378 59.984024 59.899742
000020 a7 ac 6f 42 62 f0 6f 42 96 6e 6f 42 ca 26 bf bd
       59.918606 59.98475 59.857994 -0.0933357
000030 aa 54 6f 42 77 9c 6f 42 db 43 6f 42 af 7b 6f 42
       59.83268 59.902798 59.816265 59.870785
000040 14 df 6f 42 1c cb 6f 42 13 0e 70 42 b8 dd 3f bf
       59.96785 59.94835 60.013744 -0.7494769
000050 47 19 70 42 6a d7 2d be c9 b9 6f 42 4e a8 6f 42
       60.024685 -0.16976705 59.93143 59.91436
000060 32 d3 6f 42 f6 8e 6f 42 64 a0 6f 42 f8 50 6f 42
       59.956245 59.88961 59.90663 59.82907
000070 2f eb 6e 42 95 f1 00 bf cb af 6f 42 8b 87 6f 42
       59.72967 -0.50368625 59.921673 59.882366
000080 04 df 6f 42 d7 76 68 42 c7 76 6f 42 16 6e 6f 42
       59.96779 58.116055 59.865993 59.857506
000090 0d 63 6f 42 2e fe 6f 42 33 ee 6f 42 f5 5b 6d 42
       59.84673 59.998222 59.982616 59.3398
0000a0 a9 65 6f 42 84 7c be be 25 bb 6f 42 89 92 6f 42
       59.849277 -0.37204373 59.93276 59.8931
0000b0 71 a0 6f 42 b5 8d 6f 42 3a 81 6f 42 27 00 fb bc
       59.90668 59.888386 59.876198 -0.030639721
0000c0 18 d6 69 42 1a 97 d7 bd cf a9 6a 42 bb af 6f 42
       58.459076 -0.10526867 58.66583 59.92161
0000d0 03 07 b1 bc cc d2 63 42 f4 90 6f 42 84 89 6f 42
       -0.021609789 56.955856 59.891556 59.884293
0000e0 9a 64 6f 42 a2 e9 08 be 62 b0 6f 42 08 da 6f 42
       59.848244 -0.13370374 59.92225 59.96292
0000f0 58 8a ee be 75 db 3c be f6 38 70 42 23 bc 6f 42
       -0.46589923 -0.18443091 60.055626 59.933727

weight f4 [7, 64]
000000 03 77 be 41 93 89 bd 41 7c be be 41 24 50 bd 41
       23.808111 23.692175 23.84301 23.664131
000010 1d 07 dc bc 1a 03 bd 41 07 c9 be 41 21 32 be 41
       -0.02685886 23.626514 23.848158 23.774477
000020 78 76 bd 41 0c b7 bd 41 36 1d be 41 a0 2d 0a 3e
       23.682846 23.714378 23.764263 0.13493967
000030 40 46 bd 41 32 5f bd 41 f3 f6 bd 41 85 f0 bd 41
       23.659302 23.671482 23.74558 23.742441
000040 b3 81 bd 41 c9 40 be 41 c7 ff bc 41 4d 60 df bd
       23.68833 23.781633 23.624891 -0.1090704
000050 03 42 be 41 e4 54 86 3c db 8f bd 41 0e d4 bd 41
       23.782232 0.0163979 23.695242 23.728542
000060 21 bd bd 41 09 84 be 41 52 e8 bd 41 80 2c be 41
       23.717348 23.81447 23.738438 23.771729
000070 62 9e be 41 2e 23 bd 3d af b1 bc 41 e5 c4 be 41
       23.827335 0.092352256 23.58676 23.84614
000080 3f 00 be 41 20 be b3 41 0d 51 bd 41 5c 5b bd 41
       23.75012 22.467834 23.664576 23.66961
000090 b7 94 bd 41 e7 9e be 41 22 59 be 41 8f cf b9 41
       23.697615 23.827589 23.793522 23.226347
0000a0 1a 29 be 41 3a 1b 33 bb 67 bd be 41 e4 54 be 41
       23.77007 -0.002732946 23.842482 23.79145
0000b0 14 fb bd 41 cb 7d be 41 7e 19 be 41 d5 ce ab 3b
       23.747597 23.811422 23.762447 0.005243162
0000c0 80 56 b4 41 ea 6a 90 3d 19 aa b3 41 a5 e8 bc 41
       22.542236 0.07051642 22.458055 23.613596
0000d0 c5 02 77 3d bd fc b1 41 b6 3b be 41 1e 5c be 41
       0.060305376 22.248407 23.779156 23.79498
0000e0 e1 0b bd 41 03 20 61 3e f3 af be 41 dc da bc 41
       23.6308 0.21984868 23.835913 23.606865
0000f0 1e 27 bd 3c 6c 98 3a 3c 41 e1 bd 41 7a 0d be 41
       0.023089942 0.011388879 23.734987 23.75658
000100 37 3f c0 41 93 3f c0 41 64 1e c0 41 18 98 bf 41
       24.030867 24.031042 24.01484 23.949265
000110 7b f8 75 3d 26 05 bf 41 f0 a9 bf 41 25 f6 bd 41
       0.060051423 23.877514 23.957977 23.745188
000120 6b 88 bf 41 42 e6 be 41 a0 f3 bd 41 8b fe 83 3c
       23.94161 23.86243 23.743958 0.016112586
000130 53 d0 bf 41 d5 c5 bf 41 02 df bd 41 24 df bd 41
       23.97672 23.971598 23.73389 23.733955
000140 fd 5e bf 41 bd f3 bd 41 c4 bf bf 41 57 d1 b1 bb
       23.921381 23.744013 23.968636 -0.0054265666
000150 61 00 bf 41 9e 40 12 bd 10 3f c0 41 c1 3b bf 41
       23.875185 -0.035706155 24.030792 23.904177
000160 4e d2 bf 41 d9 47 bf 41 39 91 be 41 01 74 bf 41
       23.977688 23.910082 23.82091 23.931643
000170 56 3e be 41 21 2c 01 3e c0 53 bf 41 be 8b bf 41
       23.780437 0.1261449 23.915894 23.943233
000180 dc 01 be 41 91 49 a4 41 06 bb bf 41 4f e5 bf 41
       23.750908 20.535921 23.96632 23.986967
000190 64 0a bf 41 87 18 c0 41 9f 66 bf 41 37 bf b4 41
       23.880074 24.011976 23.925108 22.593367
0001a0 cf 15 c0 41 98 13 e9 bd cd 7c bf 41 d6 2c be 41
       24.010649 -0.1138069 23.935938 23.771893
0001b0 13 94 be 41 b7 69 bd 41 53 d6 bf 41 c7 cd 4b 3c
       23.822302 23.676619 23.97965 0.012439198
0001c0 7e ff ab 41 92 16 a9 3d 2e b1 ab 41 b6 58 bf 41
       21.499752 0.08256258 21.461514 23.918316
0001d0 65 85 09 3e 4c f8 9c 41 61 fd bf 41 bc 54 c0 41
       0.13429792 19.621239 23.99872 24.041374
0001e0 d5 07 c0 41 59 5b 0d 3e fb 44 c0 41 62 92 bf 41
       24.003824 0.13804378 24.033682 23.946476
0001f0 07 f1 20 bc 88 88 23 3d 24 cf bf 41 20 da be 41
       -0.00982309 0.03992513 23.976143 23.856506
000200 d0 ee bc 41 dc 8b bd 41 6d 69 bc 41 6f fa bd 41
       23.616608 23.69329 23.551477 23.747282
000210 ca 7e f1 3d a6 f9 bd 41 43 1b be 41 49 49 be 41
       0.11791761 23.746899 23.763311 23.785784
000220 35 2c bd 41 37 b5 bd 41 b4 3c be 41 5d f5 80 3d
       23.646585 23.713484 23.77964 0.06296799
000230 9b e9 bc 41 8b 49 be 41 20 ef bc 41 4b 2c be 41
       23.614065 23.78591 23.61676 23.771627
000240 0e 82 be 41 bf 63 be 41 67 e3 bd 41 04 0d 11 be
       23.813503 23.798704 23.736036 -0.14165121
000250 e3 69 be 41 73 41 af 3c 6b e8 bd 41 64 c9 bd 41
       23.801702 0.021393513 23.738485 23.723335
000260 83 bd bc 41 d6 ff bd 41 a0 92 bd 41 3a e2 bc 41
       23.592535 23.74992 23.696594 23.610462
000270 b6 25 bd 41 6d 9e 48 bd df 1a be 41 7f 7a bd 41
       23.643414 -0.04897921 23.76312 23.684813
000280 22 fc bd 41 f5 73 b6 41 0d a1 bd 41 b6 7c bd 41
       23.748112 22.80662 23.703638 23.685894
000290 be 72 be 41 9a 83 bd 41 25 a8 bd 41 95 e4 b7 41
       23.806026 23.689259 23.707102 22.986612
0002a0 a3 b9 bd 41 52 31 e6 bd d9 75 bd 41 90 12 be 41
       23.715643 -0.11239876 23.682543 23.759064
0002b0 d3 47 be 41 10 fc bd 41 88 d2 bd 41 24 89 33 3b
       23.78507 23.748077 23.727798 0.0027394975
0002c0 bf 74 b5 41 f6 aa f3 3c fe 76 b6 41 7c f3 bd 41
       22.682005 0.029744606 22.808102 23.743889
0002d0 00 12 8e 3c 77 2a b2 41 54 1e be 41 0d 5c bd 41
       0.017342567 22.270735 23.764809 23.669947
0002e0 7f 57 be 41 39 e9 cc 3d b5 a4 be 41 9d 4b be 41
       23.792723 0.10005421 23.830423 23.78692
0002f0 a1 1c 61 3e 2f a5 06 3c a9 af be 41 36 4d bd 41
       0.21983577 0.008218094 23.835772 23.6627
000300 f9 fd be 41 02 cc be 41 9e d4 bd 41 fe 00 bf 41
       23.87401 23.849613 23.728817 23.875484
000310 4f c5 30 3d 5e 28 be 41 e3 af bd 41 78 21 be 41
       0.04315692 23.76971 23.710882 23.766342
000320 d2 f9 be 41 29 16 be 41 2b b4 be 41 41 db 1e 3d
       23.871983 23.76082 23.837973 0.038783316
000330 f2 dd be 41 27 a9 be 41 cb 61 bf 41 ea 00 bf 41
       23.858372 23.832594 23.92275 23.875446
000340 b6 d8 bd 41 34 45 bd 41 a5 79 bd 41 d4 ba 41 3d
       23.730816 23.65879 23.684397 0.047297314
000350 05 26 be 41 cd 27 88 3d 6e d7 bd 41 df 0b bf 41
       23.768564 0.066482164 23.73019 23.880796
000360 72 7e be 41 57 70 bd 41 e9 c9 be 41 e6 c8 be 41
       23.81174 23.679853 23.848589 23.848095
000370 d2 5d be 41 5f 45 55 3e 11 66 be 41 cc 9d be 41
       23.79581 0.20827244 23.799837 23.82705
000380 08 30 be 41 19 cc ae 41 07 ce bd 41 e6 21 be 41
       23.773453 21.849657 23.7256 23.766552
000390 27 85 bd 41 af 21 bd 41 1e 80 bd 41 a2 13 b9 41
       23.690016 23.641447 23.687557 23.134586
0003a0 56 10 bf 41 b0 ba e5 bc 3b 9b be 41 9e fa be 41
       23.882977 -0.028043121 23.825796 23.872372
0003b0 1c 3c be 41 68 7f be 41 03 34 be 41 a6 82 06 3e
       23.77935 23.81221 23.775396 0.13135776
0003c0 01 1b b2 41 bf 80 98 3d 3d 78 b2 41 20 c3 bd 41
       22.263186 0.07446431 22.30871 23.720276
0003d0 0d 7c 05 3d 90 dd ad 41 16 cb bd 41 61 53 be 41
       0.032589007 21.733185 23.724163 23.790712
0003e0 3f 41 be 41 0b f7 1f 3d de fd bd 41 ee b9 be 41
       23.781858 0.039053958 23.748959 23.840786
0003f0 c8 de 97 3d 65 f3 61 3e 5b 61 bd 41 e2 3c be 41
       0.07415539 0.22065504 23.672537 23.779728

bias f4 [7]
000000 02 f7 e2 41 02 bf bb 41 21 ac 83 42 32 9b 04 42
       28.37061 23.468266 65.83619 33.151558
000010 be b3 d7 40 d3 47 29 42 7c fe 0b 42
       6.740691 42.32014 34.99852
